q1_t.pth (torch, 26263 bytes, 6 tensors)

fc1.weight f4 [64, 3]
2.4152179 2.2768528 2.2682083 0.6125403 -0.04693352 0.3050771 1.2289102 0.6066251
-0.18593264 0.9763342 0.26675728 1.0220257 -1.1052668 -0.63278294 -0.39018935 -0.46849948
-0.25885847 -0.42482316 0.5834161 0.29408222 0.570729 3.0795584 2.1325068 2.3727067
0.2752387 -0.20140992 0.47171426 -0.53056026 0.12339325 -0.1772007 -0.09704019 0.6204473
-0.5710354 0.59493315 -0.49048224 0.087151095 2.9954696 2.5808122 2.2683604 0.63749313
-0.19625953 -1.3623124 3.0752726 2.87443 -0.5739123 0.14519438 -0.20631094 0.19307064
-0.71307063 0.16683802 -0.029876228 0.0020040965 -0.4140938 -0.40644336 -0.64468074 0.29163444
-0.21316619 -0.42209557 0.5293864 -0.36856467 0.011895303 -0.20450065 -0.47215548 0.76502776
0.7992435 0.56407535 2.8964791 1.8053288 -0.66048974 3.7208645 2.0832174 0.77262694
-0.47703156 1.2451481 -1.2302493 -1.9123503 -0.003647511 1.8029389 -0.17718855 -0.46979153
-0.08524555 2.3000152 2.541441 2.2707098 -0.14107041 -0.07657783 -0.50728446 3.5419426
2.3969324 2.335193 0.9989847 0.36312047 0.5630132 3.5002866 1.7096676 -0.2976576
-0.68800807 0.22037041 -0.032316234 -4.0171013 -3.034419 -0.5330209 0.19625075 0.43904456
-0.2954858 0.8870874 0.196128 0.88801473 -0.3305456 -0.006899357 -0.0728223 -0.059408605
-0.3571422 -0.3826256 -0.5460959 -0.44282192 -0.33612823 0.02061813 0.054597847 -0.7358732
3.3422084 2.1468854 0.973397 3.4948354 1.6160259 -0.23087491 3.3345263 4.3603783
-0.5867327 1.0297558 0.9604866 0.35698152 -0.23692825 -0.019877668 0.11604407 -0.2877818
0.2918848 -1.3401812 2.151371 2.431357 2.329301 -0.32892293 -0.042589486 -0.55849993
0.22908512 0.928016 0.49302915 -0.33336228 -0.36799556 -0.23069927 -0.6496377 0.014030943
-0.9017752 -0.16475603 -0.24976614 -0.069722295 0.5264664 -0.17957217 -0.8016725 0.75703126
0.22091089 0.7509957 0.6261685 -0.08621334 0.5138758 3.1920075 2.1394644 -0.79945296
0.2725111 -0.2802509 0.37324774 0.7156556 0.39396098 0.12868161 0.2541288 -0.12714504
-0.14584656 -0.5591207 -0.2185458 -0.4282475 0.57926804 -0.011858001 0.35241902 3.0191627
2.7308521 2.2927973 -0.08760215 0.43895492 -1.2448103 0.55178404 -0.33208683 0.8799279
00000000: ee92 1a40 f5b7 1140 532a 1140 71cf 1c3f
00000010: 5d3d 40bd 1133 9c3e ee4c 9d3f c84b 1b3f
00000020: 2065 3ebe 0af1 793f 6994 883e bdd1 823f
00000030: 6279 8dbf 10fe 21bf e6c6 c7be 2adf efbe
00000040: 1989 84be 6c82 d9be c25a 153f f291 963e
00000050: 4c1b 123f 7c17 4540 fe7a 0840 6dda 1740
00000060: 16ec 8c3e 673e 4ebe 8884 f13e ccd2 07bf
00000070: 9ab5 fc3d 1a74 35be 02bd c6bd a2d5 1e3f
00000080: 602f 12bf 8a4d 183f 7d20 fbbe 467c b23d
00000090: c6b5 3f40 072c 2540 d12c 1140 c032 233f
000000a0: 42f8 48be 4160 aebf 44d1 4440 a9f6 3740
000000b0: ebeb 12bf d6ad 143e 2d43 53be 4fb4 453e
000000c0: cc8b 36bf 96d7 2a3e febe f4bc 2957 033b
000000d0: 1a04 d4be 5819 d0be cc09 25bf 1c51 953e
000000e0: 3d48 5abe e91c d8be de85 073f 82b4 bcbe
000000f0: 84e4 423c 9e68 51be 5dbe f1be dcd8 433f
00000100: 399b 4c3f 3e67 103f ea5f 3940 0415 e73f
00000110: db15 29bf a522 6e40 6f53 0540 e1ca 453f
00000120: 7b3d f4be 0361 9f3f cf78 9dbf e5c7 f4bf
00000130: 140b 6fbb b4c6 e63f ea70 35be 8488 f0be
00000140: 3895 aebd 7333 1340 f8a6 2240 4f53 1140
00000150: c374 10be d6d4 9cbd 65dd 01bf 30af 6240
00000160: 5767 1940 cd73 1540 76bd 7f3f edea b93e
00000170: a221 103f b204 6040 63d6 da3f 9466 98be
00000180: 4c21 30bf c8a8 613e 075e 04bd 188c 80c0
00000190: ec33 42c0 0f74 08bf f5f5 483e 73ca e03e
000001a0: ea49 97be 2918 633f c7d5 483e ef54 633f
000001b0: 463d a9be 0014 e2bb dc23 95bd 7056 73bd
000001c0: 58db b6be 81e7 c3be f1cc 0bbf 8eb9 e2be
000001d0: 0019 acbe 5ae7 a83c fea1 5f3d 3062 3cbf
000001e0: bee6 5540 9266 0940 8c30 793f 62ab 5f40
000001f0: f0d9 ce3f 796a 6cbe e168 5540 3888 8b40
00000200: 1d34 16bf 0acf 833f 73e2 753f 48c6 b63e
00000210: 529d 72be 7ed6 a2bc 83a8 ed3d 2358 93be
00000220: ed71 953e 0f8b abbf 10b0 0940 5a9b 1b40
00000230: 4513 1540 9668 a8be 5072 2ebd daf9 0ebf
00000240: 4a95 6a3e 7592 6d3f 516e fc3e 76ae aabe
00000250: ea69 bcbe 6e3c 6cbe a84e 26bf 0ae2 653c
00000260: bdda 66bf ceb5 28be b2c2 7fbe 90ca 8ebd
00000270: 81c6 063f c4e1 37be 693a 4dbf cdcc 413f
00000280: 7736 623e 4141 403f 944c 203f 9f90 b0bd
00000290: 5d8d 033f da49 4c40 fcec 0840 f3a8 4cbf
000002a0: 9386 8b3e 0c7d 8fbe 541a bf3e 3535 373f
000002b0: 41b5 c93e 1dc5 033e 2c1d 823e 4f32 02be
000002c0: cd58 15be 8922 0fbf 78ca 5fbe 4243 dbbe
000002d0: e94a 143f 1048 42bc 4470 b43e f639 4140
000002e0: 48c6 2e40 31bd 1240 c268 b3bd b3be e03e
000002f0: f255 9fbf b841 0d3f 4907 aabe f442 613f

fc1.bias f4 [64]
2.764884 5.088905 5.710705 4.9882255 7.46596 -0.2400746 5.3468795 2.1068916
4.6948595 6.237726 6.038339 5.1236095 2.9723127 6.6721935 1.37907 5.64174
6.606014 -0.15911458 7.616726 6.7379436 6.096327 5.4252815 1.9804846 -1.4438968
4.1560526 0.72138166 -0.039376795 2.0853 6.206866 2.7757883 4.993694 1.6496652
6.3884797 -0.0059561096 6.0432563 4.634494 5.6061 -0.10497764 -0.114388496 6.4576745
-0.9153308 1.7726281 0.6948608 4.6548657 6.070053 5.9642186 2.937466 -0.009104746
5.1626277 -0.038126588 5.69583 -0.5160543 6.231295 4.8023186 4.797948 2.7122953
5.1640067 5.1289473 5.1066775 -0.48527205 4.765322 2.6422133 6.023076 4.74748
00000000: dcf3 3040 4fd8 a240 18be b640 8b9f 9f40
00000010: 25e9 ee40 1ed6 75be a319 ab40 50d7 0640
00000020: 4a3c 9640 749b c740 133a c140 9cf4 a340
00000030: 5f3a 3e40 9c82 d540 5e85 b03f 2289 b440
00000040: 7764 d340 efee 22be 38bc f340 3c9d d740
00000050: 1c15 c340 e89b ad40 8580 fd3f 9cd1 b8bf
00000060: 62fe 8440 78ac 383f 9049 21bd 8e75 0540
00000070: a59e c640 84a6 3140 57cc 9f40 3b28 d33f
00000080: 6d6e cc40 782b c3bb 5b62 c140 c64d 9440
00000090: 2c65 b340 84fe d6bd 8444 eabd 45a5 ce40
000000a0: 1f53 6abf 7ae5 e23f 66e2 313f a9f4 9440
000000b0: e03d c240 e1da be40 71ff 3b40 132c 15bc
000000c0: 3f34 a540 a02a 1cbd 3d44 b640 221c 04bf
000000d0: c566 c740 98ac 9940 ca88 9940 3f96 2d40
000000e0: 8b3f a540 5620 a440 e769 a340 9475 f8be
000000f0: 857d 9840 061a 2940 0abd c040 5beb 9740

fc2.weight f4 [64, 64]
0.09911671 0.04777386 -0.07822325 0.28501287 -5.2662325 -0.0913683 0.25216472 -0.049752705
0.1419065 -0.37323475 -0.2614394 0.20022263 0.0037777205 8.165076 0.09743216 0.016429367
-0.61226505 0.05724859 -0.7180886 -0.31658825 -0.1337845 0.12190662 0.10294568 0.15131848
3.8029573 3.0811725 -0.09065737 0.07614385 -0.20107713 0.06909691 0.16071828 0.26152018
-0.4649322 3.6227498 -0.15140969 0.36900985 -0.17649718 0.06622626 -0.113915205 -0.49391878
0.09710109 0.29751867 -2.6786416 -0.0417451 -0.04985809 -1.9079353 -0.024826404 0.07080974
-0.090492494 0.059086144 8.687141 0.100591004 -0.83442795 0.114464335 0.2563059 0.16045918
0.076305084 -0.007217996 -0.007932557 -0.022603303 0.16554426 0.0389648 -1.8928343 0.28566945
-0.04599616 -0.04894079 0.045524634 -0.07000938 -0.03321901 0.04176244 0.05785986 0.105388194
-0.020288207 0.07371797 -0.09169581 0.10543396 -0.12482475 0.011228174 -0.114502706 -0.13447472
-0.015066209 -0.10963215 0.09805785 -0.110994935 -0.12241511 -0.014310525 0.07280211 0.05880428
0.023305207 0.01787749 0.0030986965 -0.038476765 0.117140055 0.0045338585 0.0032182795 -0.056096002
0.06564427 -0.08297163 -0.08373764 0.06347477 -0.0020341924 0.12374766 -0.08694053 -0.04466188
-0.120707154 -0.014573107 -0.002616644 -0.07209985 0.029114211 0.07430877 0.09719998 -0.07575618
-0.059305433 0.014844507 -0.12117244 -0.01452139 -0.052185565 0.09408348 -0.12807775 -0.05267212
0.012604171 0.06973605 -0.06976049 -0.074429944 0.055880457 -0.029566199 -0.055605635 -0.061218515
1.5233474 1.2094848 0.814621 1.2408456 -2.9865777 -0.09855673 1.2074958 1.46687
1.5039672 1.7341244 1.0074241 1.5621897 1.2431998 3.7638946 0.84189165 1.4745255
1.6510756 -0.008991957 1.8858826 1.3718412 2.0770252 1.0776879 0.82305175 0.64407736
0.6139123 5.1413074 -0.11204332 1.4033498 1.884867 1.5463783 1.0924722 0.95690215
1.6068922 3.6982214 1.024135 1.1522919 1.577829 0.031135157 0.07926473 1.8877963
0.9315098 0.90979743 -4.1357474 0.7737326 1.5625654 -0.7702771 1.9055929 -0.00538373
1.0503292 -0.06300992 2.9372153 -0.08272113 1.3467038 1.2079039 1.2307682 0.96480143
1.5545644 1.1815238 1.5999568 -0.06859277 1.3852006 1.6985263 -1.607915 1.4686018
-0.09898457 -0.005127505 -0.0062969453 -0.016730212 -0.0506422 -0.037597016 -0.036608998 -0.023724698
-0.038820714 -0.010512471 0.01649163 -0.044621117 0.026651103 -0.11842529 -0.08199408 0.025416305
0.091279656 -0.10800846 0.100119926 0.06721734 0.060644235 0.053040445 -0.05169507 0.043038055
0.010966084 -0.03330195 0.068342835 0.039866667 -0.014944633 0.07002966 -0.08097797 -0.14047134
0.08687316 -0.120970964 0.02343141 -0.13268042 0.06943455 0.03042017 0.1061988 -0.093909845
0.02303437 -0.09563044 0.10076608 -0.048368707 -0.10286134 -0.06653271 -0.14771447 -0.07934673
-0.020509072 0.029996961 -0.032108303 0.019908562 0.06693057 0.019686762 -0.1350238 -0.043078627
0.07478579 -0.14394471 0.08209238 -0.107292965 0.08959436 0.053405385 0.10858592 -0.098098755
00000000: b4fd ca3d 86ae 433d 8333 a0bd 35ed 913e
00000010: fa84 a8c0 4e1f bbbd bc1b 813e 7ec9 4bbd
00000020: f04f 113e a018 bfbe 63db 85be 2907 4d3e
00000030: a293 773b 27a4 0241 838a c73d e196 863c
00000040: 67bd 1cbf 7f7d 6a3d a8d4 37bf db17 a2be
00000050: cefe 08be 2eaa f93d 2fd5 d23d 3bf3 1a3e
00000060: a763 7340 ee31 4540 92aa b9bd 4ff1 9b3d
00000070: 2ae7 4dbe ae82 8d3d 5593 243e f9e5 853e
00000080: 980b eebe 22db 6740 240b 1bbe dcee bc3e
00000090: adbb 34be a2a1 873d 604c e9bd ece2 fcbe
000000a0: f0dc c63d 5e54 983e dd6e 2bc0 e9fc 2abd
000000b0: ff37 4cbd 3937 f4bf be60 cbbc b204 913d
000000c0: 2154 b9bd 5004 723d 88fe 0a41 a802 ce3d
000000d0: 129d 55bf 476c ea3d 873a 833e 694f 243e
000000e0: d745 9c3d f084 ecbb 8ef7 01bc 902a b9bc
000000f0: 6f84 293e 8e99 1f3d 6548 f2bf 4443 923e
00000100: 7866 3cbd 2376 48bd 0a78 3a3d 1461 8fbd
00000110: a810 08bd 180f 2b3d 76fe 6c3d c4d5 d73d
00000120: 7433 a6bc 72f9 963d 03cb bbbd c3ed d73d
00000130: 1ea4 ffbd 60f6 373c 6580 eabd beb3 09be
00000140: 43d8 76bc d286 e0bd 8ed2 c83d 5051 e3bd
00000150: c6b4 fabd b176 6abc 4619 953d c2dc 703d
00000160: 90ea be3c d073 923c 8013 4b3b d099 1dbd
00000170: 20e7 ef3d c390 943b c5e9 523b ecc4 65bd
00000180: 8170 863d 08ed a9bd a47e abbd 0fff 813d
00000190: 1650 05bb 6a6f fd3d e00d b2bd 60ef 36bd
000001a0: 5035 f7bd 0ac4 6ebc 007c 2bbb 16a9 93bd
000001b0: ed80 ee3c 322f 983d c810 c73d 0e26 9bbd
000001c0: 41ea 72bd 6036 733c 4229 f8bd 20eb 6dbc
000001d0: 88c0 55bd d7ae c03d d026 03be b9be 57bd
000001e0: ba81 4e3c c6d1 8e3d 96de 8ebd ba6e 98bd
000001f0: e8e2 643d d034 f2bc bcc2 63bd 44c0 7abd
00000200: 0cfd c23f 66d0 9a3f 008b 503f 07d4 9e3f
00000210: 1724 3fc0 1cd8 c9bd 398f 9a3f 65c2 bb3f
00000220: ff81 c03f caf7 dd3f 46f3 803f d5f5 c73f
00000230: 2c21 9f3f a6e3 7040 3686 573f 40bd bc3f
00000240: 7256 d33f 0053 13bc 9a64 f13f 7e98 af3f
00000250: fbed 0440 adf1 893f 85b3 523f 41e2 243f
00000260: 5b29 1d3f 9785 a440 f876 e5bd f7a0 b33f
00000270: 5243 f13f b9ef c53f 21d6 8b3f 8af7 743f
00000280: a5ae cd3f a9af 6c40 db16 833f 4d7e 933f
00000290: 4df6 c93f 280f ff3c 8c55 a23d 4fa3 f13f
000002a0: 6d77 6e3f 7ce8 683f 0b58 84c0 5713 463f
000002b0: 2502 c83f e130 45bf 78ea f33f 006a b0bb
000002c0: 3071 863f 580b 81bd 56fb 3b40 b269 a9bd
000002d0: ca60 ac3f 989c 9a3f d089 9d3f 3afd 763f
000002e0: f7fb c63f 2c3c 973f 62cb cc3f 5e7a 8cbd
000002f0: 414e b13f 4f69 d93f 29d0 cdbf 25fb bb3f
00000300: 6cb8 cabd a104 a8bb 9b56 cebb cc0d 89bc
00000310: 326e 4fbd 54ff 19bd 51f3 15bd 4c5a c2bc
00000320: 7802 1fbd 803c 2cbc 7419 873c a2c4 36bd
00000330: 6a53 da3c f588 f2bd 83ec a7bd db35 d03c
00000340: d4f0 ba3d 8a33 ddbd ad0b cd3d 3fa9 893d
00000350: 1766 783d f040 593d 36be 53bd ac48 303d
00000360: 17ab 333c a067 08bd 54f7 8b3d 3b4b 233d
00000370: 55da 74bc b66b 8f3d c7d7 a5bd b8d7 0fbe
00000380: 8eea b13d a0bf f7bd 3af3 bf3c 60dd 07be
00000390: b433 8e3d b833 f93c c27e d93d ce53 c0bd
000003a0: 93b2 bc3c e4d9 c3bd 725e ce3d 441e 46bd
000003b0: f7a8 d2bd 4d42 88bd 7642 17be 8a80 a2bd
000003c0: a402 a8bc 30bc f53c ff83 03bd 4817 a33c
000003d0: e512 893d 2246 a13c ae43 0abe 3773 30bd
000003e0: 4b29 993d 3e66 13be 0d20 a83d 6abc dbbd
000003f0: 3f7d b73d 9bbf 5a3d 4b62 de3d 00e8 c8bd

fc2.bias f4 [64]
0.08043094 -0.14024404 1.9073218 -0.16439229 -0.00837549 -0.1634152 0.0064298497 -0.16959755
0.063969456 -0.12602681 -0.06355808 -0.13251798 -0.09381589 1.4135716 1.1991862 1.1134754
-0.047906373 0.049266692 -0.07416499 0.06179498 0.69694626 0.08467801 -0.076316625 1.8706299
-0.10485671 0.43340987 0.90611756 0.9806342 3.4606104 -0.25859278 0.0028238469 0.8623699
0.6964154 0.060326956 0.3390514 0.079813935 1.6228755 0.78648955 -4.006152 -0.07395518
1.3130292 0.8183674 0.09852628 -0.032127783 -0.12775841 -0.8418903 0.1902185 0.008305897
0.043874726 -0.075472146 0.09656211 0.018065616 2.8238127 0.07895847 -0.124876186 0.60578376
2.914018 0.6646961 0.026181445 0.0061564473 0.3082082 0.87794054 1.03355 -0.1421923
00000000: fab8 a43d 229c 0fbe 1f23 f43f 7456 28be
00000010: 5a39 09bc 5056 27be 7db1 d23b fbaa 2dbe
00000020: 6b02 833d 2c0d 01be bd2a 82bd cbb2 07be
00000030: 8c22 c0bd eaef b43f ef7e 993f 5d86 8e3f
00000040: 7939 44bd dfcb 493d d0e3 97bd bc1c 7d3d
00000050: 126b 323f aa6b ad3d e44b 9cbd cd70 ef3f
00000060: 1dbf d6bd e6e7 dd3e 52f7 673f d80a 7b3f
00000070: a47a 5d40 4666 84be 4a10 393b 46c4 5c3f
00000080: 4848 323f 6619 773d 2598 ad3e 7d75 a33d
00000090: 62ba cf3f 6157 493f 6632 80c0 d075 97bd
000000a0: 5711 a83f 8780 513f 25c8 c93d 6c98 03bd
000000b0: 1ad3 02be 1f86 57bf a3c8 423e 7515 083c
000000c0: fcb5 333d 2491 9abd 5bc2 c53d 58fe 933c
000000d0: 59b9 3440 fab4 a13d 16bf ffbd a514 1b3f
000000e0: 457f 3a40 8629 2a3f 787a d63c 06bc c93b
000000f0: 77cd 9d3e b6c0 603f 5e4b 843f dc9a 11be

fc3.weight f4 [26, 64]
0.36628887 -0.0044861436 0.9998745 -0.083995156 -0.007314503 0.09207357 -0.062051877 0.08924137
0.06896206 0.649093 -0.10206899 0.06202261 0.0050307214 0.8250716 1.1352551 -1.4462655
-0.01796836 -0.09382129 0.020097226 0.09382595 1.964446 -0.04356567 0.04001534 -0.00041847827
0.09037837 -0.38338178 0.6222412 1.1837814 2.4913585 -0.04327415 -0.078291275 0.5199192
1.2634342 -0.020315897 0.34818336 -0.07403828 0.98995656 2.048861 -1.5894396 0.008321181
1.5875127 -0.88800186 -0.058718324 1.0712538 -0.047210425 -0.61498904 -0.67973393 0.089993745
0.007573873 -0.055167258 -0.07145185 -0.022934794 0.94833106 -0.10137592 -0.11651564 1.5981169
1.5916208 1.6823454 0.055061273 -0.08525232 0.6577872 1.5033054 1.827345 0.053597756
1.127094 0.11247833 0.48111033 -0.018861579 -0.13034943 -0.074778326 0.039123237 -0.09521385
0.012093112 1.3042691 -0.10492928 -0.021941796 0.069663405 0.50854903 1.4354722 -0.10263232
0.0506294 -0.110258356 -0.11674851 -0.076570384 1.26451 -0.0015980499 -0.1080852 -0.6129763
-0.087779626 0.103076756 0.5800992 1.4795138 1.0291773 1.2074999 0.08495747 0.5336526
1.342647 0.01848346 1.3074255 -0.018200293 0.44595373 1.4087533 -0.70149696 0.021934524
1.2759107 -0.6574301 -0.02316569 1.0377722 0.08550511 1.5281408 0.61132145 0.02798076
-0.049750194 0.09915849 -0.0076047033 -0.07992029 2.4257996 -0.10860638 -0.12288311 1.446252
1.4329565 1.3491843 -0.074547514 -0.14707613 1.3187264 1.6162962 1.4529763 0.04408636
0.6137698 0.08703088 1.033363 -0.05100955 -0.111278184 0.059648562 -0.1224514 0.04603483
-0.112062626 1.1540811 -0.113750994 -0.012383014 0.081105135 0.3705433 1.7207793 0.33866885
0.063058205 0.09024732 -0.040411413 0.05021225 1.5445678 0.100558184 0.07563746 1.1625508
0.051038794 0.6226383 0.32682464 1.8967934 0.35481802 0.16201182 0.08404721 0.7653541
1.6873019 -0.05187372 0.10014937 -0.11326264 0.9435779 1.548816 -1.8705801 -0.015751302
1.689723 1.0074798 0.04139419 1.3149791 0.119827524 0.6764929 0.04096493 -0.030290782
-0.0732483 0.0094166035 0.1089421 -0.06356506 1.2799621 0.08730796 -0.09196002 1.582991
1.2156713 1.4584951 -0.052479297 0.046653215 0.3171468 1.6719966 1.6237515 0.10861841
-0.5196939 0.07705903 0.9196672 -0.009995077 -0.015466281 -0.02300612 0.08587331 0.08208261
0.106022336 0.47586155 0.080001906 0.12454344 -0.08986376 1.2721636 0.05355209 -1.715006
0.038379014 0.06571593 0.016131788 -0.005418105 1.351098 -0.053150184 -0.031950757 0.08871651
-0.026316479 -0.5448312 0.9080421 0.012455082 2.9052749 -0.89647746 -0.07182957 0.46468815
0.49865222 -0.028767722 -0.36075985 -0.0068980902 0.9919051 0.6096504 -2.2344294 -0.10946943
1.073382 -0.55140525 -0.0762726 0.90217686 0.0670214 -0.5836953 -0.8514633 -0.03776917
-0.021047235 -0.062222604 -0.09108132 0.02107568 0.56731325 -0.12312041 -0.007086018 1.147788
1.9241098 1.3018429 0.039732836 -0.061556216 -0.023779891 0.5326949 0.5142776 0.10356383
00000000: 378a bb3e 8000 93bb c6f7 7f3f a705 acbd
00000010: 80ae efbb 1191 bc3d 1c2a 7ebd 2ec4 b63d
00000020: fb3b 8d3d f52a 263f 8c09 d1bd 6c0b 7e3d
00000030: c0d8 a43b e437 533f 0a50 913f 3a1f b9bf
00000040: 6232 93bc 6025 c0bd f0a2 a43c d227 c03d
00000050: f772 fb3f ea71 32bd 20e7 233d 3467 dbb9
00000060: 4b18 b93d 9e4a c4be 334b 1f3f 2686 973f
00000070: 6b72 1f40 3c40 31bd 2d57 a0bd 6d19 053f
00000080: 36b8 a13f 866d a6bc 1745 b23e 62a1 97bd
00000090: cb6d 7d3f 8a20 0340 c272 cbbf 9055 083c
000000a0: 9e33 cb3f 1754 63bf a082 70bd d81e 893f
000000b0: b85f 41bd ec6f 1dbf 0b03 2ebf a44e b83d
000000c0: 402e f83b 10f7 61bd 5955 92bd c0e1 bbbc
000000d0: d3c5 723f 2e9e cfbd c09f eebd 188f cc3f
000000e0: 3bba cb3f 1857 d73f ee87 613d c598 aebd
000000f0: be64 283f 506c c03f 71e6 e93f 5289 5b3d
00000100: 9e44 903f 0a5b e63d 1854 f63e 9983 9abc
00000110: 527a 05be 6125 99bd b03f 203d 7bff c2bd
00000120: 3022 463c 4af2 a63f 2ae5 d6bd 48bf b3bc
00000130: b0ab 8e3d 4530 023f 8ebd b73f e530 d2bd
00000140: c660 4f3d 22cf e1bd d819 efbd efd0 9cbd
00000150: 77db a13f a875 d1ba c65b ddbd 04ec 1cbf
00000160: cec5 b3bd e819 d33d 6281 143f b560 bd3f
00000170: 15bc 833f 5b8f 9a3f 2ffe ad3d 759d 083f
00000180: dbdb ab3f a06a 973c b859 a73f c818 95bc
00000190: 0c54 e43e 0752 b43f 4e95 33bf 08b0 b33c
000001a0: 0b51 a33f 574d 28bf f9c5 bdbc b8d5 843f
000001b0: 4e1d af3d 1e9a c33f 907f 1c3f e837 e53c
000001c0: dcc6 4bbd 9b13 cb3d e030 f9bb 40ad a3bd
000001d0: 4d40 1b40 066d debd 24aa fbbd c91e b93f
000001e0: 1e6b b73f 12b2 ac3f 5eac 98bd 209b 16be
000001f0: 07cc a83f cbe2 ce3f 21fb b93f e693 343d
00000200: 0520 1d3f 3f3d b23d 3d45 843f 64ef 50bd
00000210: d1e5 e3bd 0d52 743d cdc7 fabd 058f 3c3d
00000220: 1781 e5bd eeb8 933f 48f6 e8bd 20e2 4abc
00000230: 731a a63d dab7 bd3e 7f42 dc3f 0166 ad3e
00000240: a924 813d 96d3 b83d 7086 25bd 5cab 4d3d
00000250: 66b4 c53f 73f1 cd3d d0e7 9a3d 77ce 943f
00000260: 0e0e 513d 3965 1f3f 8f55 a73e 20ca f23f
00000270: b5aa b53e 6de6 253e f220 ac3d 3fee 433f
00000280: 82f9 d73f 8a79 54bd 1d1b cd3d 3ef6 e7bd
00000290: 528e 713f 9a3f c63f 2b6f efbf e008 81bc
000002a0: d848 d83f 19f5 803f f48c 293d 3c51 a83f
000002b0: 2268 f53d a42e 2d3f d8ca 273d 6024 f8bc
000002c0: 3403 96bd 1948 1a3c 091d df3d 662e 82bd
000002d0: ccd5 a33f 84ce b23d 8955 bcbd 739f ca3f
000002e0: 1e9b 9b3f f8af ba3f 88f4 56bd 7117 3f3d
000002f0: 1161 a23e fc03 d63f 17d7 cf3f 5473 de3d
00000300: a90a 05bf 20d1 9d3d 4f6f 6b3f 64c2 23bc
00000310: 4966 7dbc 5577 bcbc 59de af3d ed1a a83d
00000320: 3d22 d93d 20a4 f33e 0ad8 a33d a210 ff3d
00000330: 7e0a b8bd 42d6 a23f 7059 5b3d 5185 dbbf
00000340: 5033 1d3d 1396 863d d026 843c 5c8a b1bb
00000350: c7f0 ac3f 02b4 59bd ccde 02bd 00b1 b53d
00000360: a895 d7bc 0f7a 0bbf 7275 683f 6610 4c3c
00000370: 06f0 3940 8c7f 65bf 621b 93bd 9beb ed3e
00000380: 584f ff3e 49aa ebbc 84b5 b8be 6009 e2bb
00000390: 7eed 7d3f 0c12 1c3f e400 0fc0 8231 e0bd
000003a0: 9564 893f e528 0dbf cf34 9cbd 10f5 663f
000003b0: 8442 893d 0e6d 15bf 80f9 59bf d8b3 1abd
000003c0: 406b acbc 21dd 7ebd d888 babd e8a6 ac3c
000003d0: 713b 113f 8e26 fcbd d431 e8bb b8ea 923f
000003e0: 3b49 f63f caa2 a63f e6be 223d 5f22 7cbd
000003f0: 0cce c2bc b15e 083f b2a7 033f 4619 d43d

fc3.bias f4 [26]
0.83388835 -2.7327693 0.39336506 0.3574429 -6.5198 -1.9170197 -0.051985435 0.5559639
0.71817094 0.8380257 -0.6445953 1.5097271 -0.31435445 0.3603133 0.17663425 0.8094019
2.3181272 4.703656 1.0897825 -0.04764926 2.2295418 -2.2879045 0.5570826 4.987685
1.1123776 1.3027525
00000000: b579 553f b1e5 2ec0 2567 c93e c102 b73e
00000010: 34a2 d0c0 e760 f5bf aeee 54bd a653 0e3f
00000020: 0dda 373f da88 563f 3304 25bf bd3e c13f
00000030: 11f3 a0be fc7a b83e 9cdf 343e f734 4f3f
00000040: 325c 1440 5a84 9640 fe7d 8b3f df2b 43bd
00000050: d0b0 0e40 076d 12c0 f79c 0e3f 1e9b 9f40
00000060: 6462 8e3f 98c0 a63f
