q2_1.pth (torch, 50071 bytes, 6 tensors)

fc1.weight f4 [64, 5]
00000000: 7622 50bf a9bd d3be ede6 31be de9e 84be
00000010: 5327 9abe 752f f03f a5ff 2b3e a3bc afbf
00000020: f652 083e 1a3e cd3e 1667 8ac0 fbf3 e93e
00000030: bd78 ecbe 1e25 313e 568f 8c3f c29c f0bf
00000040: 2471 823f 31a4 063f dd16 c43f 8236 ce3f
00000050: 61f4 5c40 9f44 32be ebe5 b6bf 4831 893e
00000060: b278 363f b8f1 8f41 dce8 c9bd 99c3 523e
00000070: 9a27 7a3e 0165 eb3d 232d 4541 a46a 413f
00000080: 32d0 cd3f 5458 933c 73e8 01bd 51bd 3fc0
00000090: fa3b 5940 252d 1a41 f4a1 2c40 11b9 ba3f
000000a0: aa82 de3f 5842 55c2 b7e6 c73e efcd 313f
000000b0: 9857 883f 104d aebe f42e 673f 0610 5ebf
000000c0: eb2f 2fbd 3806 b2be ca2d 0cc0 cee0 173f
000000d0: 72e3 9640 39f7 8a3f 387c 2f3e 748f c73f
000000e0: d487 82c0 c9a5 c73e 2f27 343d f261 b2be
000000f0: f9ee d9bf 515a 883c 4dfd 023d 753c c83d
00000100: e471 473d a240 b040 99a4 3a40 1f70 433f
00000110: aef0 463f 0a0b 1740 a48c ac40 2e6b 2040
00000120: 34a6 df3f 9fed ba3f 2637 2d40 ecc0 e440
00000130: d713 94bf de8b 2140 f221 d73e 9b91 cc3f
00000140: b7fb c6bf 342d 2e3e c31f 98bd a330 023d
00000150: 33c5 833e d599 c6bf 01dd 9abc f324 5bbd
00000160: 794b 18be 9dc8 a93e 4038 a940 2f74 573e
00000170: ac1d 07bf 1abb 83be cb4d 1d3f a6ed 65bf
00000180: 775b 4a40 b3b4 ac3d c4c1 90be a4ba 8ebf
00000190: d145 d0bf 4afa 9abc ee87 983c 1ecf 31be
000001a0: 8af5 693e ade8 65be f6c2 22c0 9931 45be
000001b0: 4ff0 863d 21f4 86bd d77f 5341 f466 493f
000001c0: ffb9 0d3f 1342 d13d 32ff 44bd 4617 02c0
000001d0: 4a7f 913e 85e1 1040 7797 a13f 018d c03d
000001e0: f47b a1bf a5bc a4bd b0fa 4abe 0c36 edbd
000001f0: 0aa8 5340 ddf0 27bf b17b 513d a295 063f
00000200: d9c9 68bf a856 d6be 5df4 e240 13af 303f
00000210: 06fb b0bf d8ba 0f3e 5886 fa3e 0d2b 0440
00000220: 5296 aebf cb91 cbbf 196e 2f3e a4e0 033f
00000230: 7c35 2840 2b9f cf3f 2739 abc2 81b9 ed3f
00000240: 3734 1140 5478 6a40 96fa 2dbf 6e2f 6c40
00000250: 8fe5 4f3f 2700 0740 1bb8 1741 52a2 8abf
00000260: 2036 8940 a3bc 1e3f 565b 0d40 95d4 90be
00000270: f1af 823e 3331 123e 988b aabd 15e4 95bf
00000280: c280 d0bf 1560 103f e1a2 20be d5c5 0c3f
00000290: be48 1140 0b4a d6bf febd 933d 21cd ba3c
000002a0: 0b12 7c3d 3272 213e beac 8bbf de0f 87bf
000002b0: d770 bc40 07eb 59bf 0f80 03bf 0b5a 14c0
000002c0: cfab b53f 3b72 0d40 26c8 cd3f 9a5a c13f
000002d0: 9209 eabf ba60 ae3e e5f3 51bd db4b b13e
000002e0: caf2 db3f 2041 013d 0c21 46be 4e7f d3be
000002f0: cb55 65be 900e 44bd 727b 1841 4145 15bf
00000300: 93c8 4b40 9e9c 063f 2c66 7a3f a9c1 3340
00000310: 4a18 e63d c4b4 e2bf 01cb 8e3e b6c4 ee3e
00000320: 27cc 09c0 d31e ca40 8e1a 5140 561b 0e3f
00000330: 433a b2be 58fc 0bc1 fd1c f93f b077 0b41
00000340: f87d b93f cd38 0a40 968c 85bc 45c8 923d
00000350: 5e4a bfbf 0e98 cd3c b7dd e0bc b621 2641
00000360: 362c 1040 ea65 0740 8153 a7bd 3428 603f
00000370: 3878 a540 78b0 013f 0e13 7a40 702f 993f
00000380: e91d fd3f f8ff b4be b9a9 3ebf fc4d 033e
00000390: a7ea cfbe 80bb b7be 870d b0be 2b63 0bbe
000003a0: 7734 a5bf e97b 95bd 58cb dd3d bc7f 62bf
000003b0: dff8 b4be 6a4c 413d 2efa b1be a4f1 0cbe
000003c0: 19f5 c740 b13e f8bd 78a6 20bf 5247 90be
000003d0: 8589 8e3d 5da9 67bf 2c31 a6be 83c5 32bd
000003e0: ee55 8cbe c2e7 93bd deaa bebe db34 b1be
000003f0: 4e6e 46bf d6af 15be e29c fabd 8ddc 53bd
-0.81302583 -0.41355637 -0.17373247 -0.25902456 -0.30108127 1.8764483 0.1679674 -1.3729442
0.13312897 0.40086442 -4.3250837 0.45693955 -0.46185866 0.17299315 1.0981243 -1.8797839
1.0190778 0.52594286 1.5319477 1.6110384 3.4524157 -0.1740899 -1.4288915 0.2679541
0.71277916 17.993027 -0.098588675 0.20582427 0.2442917 0.11493874 12.32352 0.75553346
1.6079161 0.017986454 -0.03171582 -2.99593 3.3942857 9.636022 2.6973848 1.4587728
1.7383626 -53.31479 0.3904321 0.69454855 1.0651731 -0.3404317 0.9030602 -0.867432
-0.042770308 -0.3477037 -2.1902947 0.593274 4.7152643 1.0856696 0.1713723 1.5590653
-4.0790806 0.38993672 0.04398268 -0.3484035 -1.7026054 0.016644629 0.031979848 0.09777156
0.0486926 5.5078897 2.9162962 0.7634296 0.77711 2.3600488 5.392168 2.5065417
1.7472596 1.4603766 2.706491 7.14855 -1.1568555 2.5241618 0.42018086 1.5981935
-1.5545567 0.17009431 -0.07427933 0.031784665 0.2573639 -1.5515696 -0.018904211 -0.053502034
-0.1487254 0.33160868 5.2881165 0.21040414 -0.5277965 -0.25728685 0.6144683 -0.8981575
3.1618326 0.08432903 -0.2827283 -1.1150708 -1.6271306 -0.018918175 0.018619504 -0.17364165
0.22847572 -0.2245204 -2.5431495 -0.19257201 0.06588804 -0.06589533 13.218711 0.7867272
0.5536193 0.10217681 -0.048094936 -2.0326705 0.28417426 2.2637646 1.2624348 0.09401894
-1.2615952 -0.080437936 -0.19822192 -0.11582574 3.3071313 -0.65601903 0.051143352 0.5257207
-0.90932995 -0.41862988 7.0923295 0.6901714 -1.3826606 0.14036119 0.4893062 2.0651276
-1.3639624 -1.5903867 0.17131843 0.5151465 2.6282644 1.6220449 -85.611626 1.8572236
2.268812 3.6635942 -0.6796049 3.6903949 0.81209654 2.1093843 9.482448 -1.0830786
4.287857 0.62006587 2.2086997 -0.28287187 0.25524858 0.1427658 -0.08327407 -1.171023
-1.6289294 0.5639661 -0.15687133 0.5498937 2.2700648 -1.6741346 0.072139725 0.022802891
0.061540645 0.15766218 -1.0912092 -1.0551717 5.8887744 -0.8512425 -0.51367277 -2.3179958
1.4193057 2.210097 1.6076705 1.5105774 -1.8284171 0.34058172 -0.051257987 0.34628186
1.7183468 0.03155625 -0.19348544 -0.41308063 -0.22396009 -0.04786545 9.530138 -0.583088
3.184117 0.5258273 0.9781215 2.808695 0.112351015 -1.7711415 0.27889255 0.46634454
-2.1530855 6.3162627 3.2672458 0.5551046 -0.34810075 -8.749107 1.9461972 8.716721
1.4491568 2.1597168 -0.016302388 0.07167105 -1.494457 0.02509692 -0.027449472 10.38323
2.2526984 2.1155953 -0.08170224 0.87561345 5.170925 0.50659895 3.907413 1.1967602
1.9774753 -0.3535154 -0.74477726 0.12822717 -0.40608713 -0.3588524 -0.3438532 -0.13612048
-1.2906636 -0.072990246 0.108298 -0.8847616 -0.35346124 0.047192015 -0.34761184 -0.13764054
6.248669 -0.121213324 -0.6275401 -0.28179413 0.069598235 -0.904928 -0.3245939 -0.043645393
-0.2740931 -0.07221939 -0.37239736 -0.34610638 -0.7751206 -0.14617857 -0.12236954 -0.051724005

fc1.bias f4 [64]
00000000: 5570 7f41 3f18 1641 0690 7141 9b10 5d41
00000010: b02a 3441 118a 7540 b861 a040 35ad 3141
00000020: 62dd 1b41 fa15 7541 baf0 7341 141e 7a41
00000030: 2359 7041 0fe1 96c0 a0b2 7dc0 dc77 ae40
00000040: 4f3a 5a41 60f1 6641 c216 ec40 d475 6f41
00000050: e3d6 6f41 41f0 8141 1ffa 9b40 af88 6d41
00000060: 6775 4c41 cd86 5341 0d7a ef40 3935 1341
00000070: bc0c 1a41 81fb c340 eb1b 8740 4ce3 2f41
00000080: 1f09 6441 5d70 6a41 d372 3ec1 7057 6541
00000090: f112 7441 180a 8cbe 6222 a740 b1e3 2341
000000a0: 0b3f 5441 cce4 3241 21c1 5941 5897 a440
000000b0: 0c6b c340 8545 7241 3aff 7441 04e2 6241
000000c0: ef91 ea40 a34b 6941 abbf 6f41 4038 4c41
000000d0: 2239 4441 4593 6241 157a 3d41 82a9 6d40
000000e0: a850 6441 4ec5 1641 de57 5641 2dc3 7641
000000f0: 2682 8d3e d17d 5041 1f2f d140 0a89 5e41
15.964925 9.380919 15.097662 13.816554 11.260422 3.836552 5.0119286 11.104787
9.741549 15.317865 15.246271 15.632343 15.021762 -4.714973 -3.9640274 5.4521313
13.6392355 14.433929 7.377778 14.966267 14.989963 16.242311 4.8742824 14.84587
12.778663 13.22041 7.483649 9.200494 9.628109 6.124451 4.222158 10.992992
14.252227 14.652432 -11.903033 14.333847 15.254624 -0.2735145 5.222947 10.243089
13.265391 11.180859 13.609651 5.1434746 6.1068172 15.141973 15.312311 14.18018
7.330314 14.580966 14.984294 12.763733 12.263948 14.160954 11.842305 3.713471
14.269691 9.42317 13.396452 15.42265 0.27638358 13.030717 6.537002 13.908457

fc2.weight f4 [128, 64]
00000000: cb1d 6f40 de82 8f3e f76a 1c3d dff3 3c40
00000010: d8f4 03c0 c7e8 5dbf 309c 873d ddb9 3f40
00000020: 9c11 1fbf 1d06 ee3f a814 5f40 f421 813f
00000030: d7cb 9d40 ad25 5bc0 409e 2fc0 9732 cd3e
00000040: 80fe 6340 6e95 3940 3406 993c 31ce 1540
00000050: 6fa0 6f40 6897 c83f 25fc 043d ddd8 5640
00000060: bb2c c93f bc3c 4540 4511 b4be 9f38 03bf
00000070: 91a1 873f e510 b43f d591 b33e 12cc 2940
00000080: d12b 1e40 9721 b340 cf34 2e41 067c 4140
00000090: a55f 1f40 bc3c e03d 8c8c 1b3f b3a4 b2be
000000a0: d3a3 2040 d0e3 1640 85e5 fd3e afb0 573e
000000b0: 3ce0 ac3f 60a7 2e40 ee9b 803f dc46 4740
000000c0: c77b aabe c11f 5c40 94fc 0f40 e207 eabe
000000d0: 3561 c9be 30c7 1840 7dfe b9bd 93d6 34bf
000000e0: 5678 3f3f 6987 ad3f 58d6 eb3e f43b ca40
000000f0: 9c02 a6bd 814c 833c 7099 8c3f e828 413f
00000100: 97c8 e53a 707f cabd 8f52 bd3c 00e1 95bd
00000110: eb9b a93d 7da5 9f3b 38bd a73d a811 b5bc
00000120: 2366 14be 6791 6d3d f768 a0bd 790d 16be
00000130: 6ad7 873d 9a04 da3d 04cb 86bd 6965 3e3d
00000140: aad1 87bd 0cb5 943d 7ae3 febc 12f8 c8bd
00000150: 98c0 973d 3c77 87bd da07 f43b 7c83 e1bd
00000160: d445 113d fc18 06be 76a7 a5bd 5aec ab3d
00000170: 7b68 42bd c307 25bd 7852 02bc d8aa cebd
00000180: 469a b3bc 5972 d93b 8070 993d cf3a 75bd
00000190: 83a4 04bb 803e 93bd 82f9 15be a641 c1bd
000001a0: d866 55bd 50fe 05bd 4b3f 06be b740 763d
000001b0: 4429 afbd 6dbd 513d c2c2 6ebd 243d 393d
000001c0: b2f8 743c 5112 c7bd aaa1 34bd c955 413d
000001d0: 4010 7fbc 5fda 1dbe 99e2 86bd d7ba d63c
000001e0: b98a 0ebd 50af fcbd 5521 16be 3820 033d
000001f0: 8046 4a3d 695f 96bd 4abd 943d 604f d3bd
00000200: 2b7d 713f 9ca4 323e 8f57 3bbf f4b5 813c
00000210: 10db a3be 2c8f cc3e 1ba9 cf3e 0566 e4bd
00000220: 8c83 fe3e e85b 1d3f 3366 43bf 5ebc 6dbe
00000230: b4e5 a03f 5d02 b1c0 e3be a5c0 7ca1 b03e
00000240: f067 803f 3516 08be 382c 913e cd82 cc3f
00000250: d609 a9bd a118 f8bf 3344 8f3e dc57 9abe
00000260: 6b34 30c0 124d df3f ec61 90be c084 163f
00000270: aca7 f63d af11 353e d7b0 833e 1247 f53e
00000280: c347 8cbe b19b 913f 94c3 dc3e 929c 8a3d
00000290: a21a e8be 0aa6 ffbd 1c0f 093f 5ef7 9ebe
000002a0: 5197 943f b073 8ebf c307 06bf f4d3 1c3d
000002b0: 1be0 783d 355b cd3f 57cb 15be e3dc 063f
000002c0: 0a9f bb3e 2e5d e9be 2c23 a73e 00c5 563e
000002d0: 293e 3cbf c6a0 fcbe a758 a1bf 3c6c 823e
000002e0: 73c9 7fbe 09cd d7c0 ad0d 0fbf ee8a 6c3f
000002f0: fab0 933d 8f36 92bf 2b9a 973e 0ff7 85be
00000300: 77b6 143d dca5 a73d 96d4 bbbd 6a05 30be
00000310: c9c2 35bd b7fb d83c 6603 babd ddef 8abb
00000320: d218 9f3c 2694 4abd 8abe 883d fc5f 793d
00000330: cbf1 7fbd 5ad2 973d a43e 02be 6120 d83c
00000340: ca89 0fbd db5b d73c 6151 a63b 4d69 c4bd
00000350: 7247 49bd cf38 a3bd ce0d a33d 3f36 b73d
00000360: 4f56 fdbc 794d f33c ad18 fd3c 4c4a e5bd
00000370: 0da5 0fbe b6e3 483c 908d dbbd b0fa e33c
00000380: 7fc1 0dbe e93b ccbd debf 30bd 446f 08bd
00000390: bbf5 703d e889 ac3c d571 b1bc f4cc a83d
000003a0: 57a3 a1bd e680 05be 3701 09be 755a 543d
000003b0: 1070 9abd f7f2 133b b004 15be be45 85bd
000003c0: 7b08 6ebd d1e6 62bc 13e8 acbd 9b71 a5bd
000003d0: 61de 57bd 4381 ffbd abf4 063d 55af 973d
000003e0: 8032 dfbd da20 48bd 40f1 cd3d ecc8 863d
000003f0: 6021 cbbc 1707 9a3d e816 0ebe f08e 1fbd
3.7361934 0.2802953 0.038187947 2.9523847 -2.061819 -0.86683315 0.06621587 2.9957192
-0.62136245 1.8595616 3.4856358 1.0088487 4.931133 -3.4241745 -2.7440338 0.4007766
3.5624084 2.8997455 0.018679716 2.34071 3.744167 1.5671206 0.032467026 3.3569863
1.5716776 3.081832 -0.35169426 -0.5125827 1.0596181 1.4067656 0.350722 2.6530805
2.4714243 5.5978503 10.887893 3.0231948 2.4902127 0.10949084 0.6076133 -0.3489128
2.509999 2.3576546 0.49589172 0.21063493 1.3505931 2.7289658 1.0047586 3.1137
-0.3329756 3.439438 2.2497911 -0.4570914 -0.39331976 2.3871574 -0.09081743 -0.70639914
0.74792993 1.3556949 0.4606197 6.3198185 -0.081059664 0.01602769 1.0984325 0.75453043
0.0017531094 -0.09887588 0.023110656 -0.07318306 0.08281692 0.0048720227 0.081903875 -0.022103146
-0.14492087 0.057999995 -0.078325205 -0.14653577 0.06632884 0.10645409 -0.06581691 0.04648343
-0.06631787 0.072610945 -0.031114329 -0.09812941 0.07409781 -0.06614539 0.007447225 -0.11011407
0.035466984 -0.13095468 -0.08088581 0.0839469 -0.04746292 -0.040290605 -0.007954232 -0.100911796
-0.02192415 0.0066359458 0.07492161 -0.059870537 -0.0020239658 -0.07189655 -0.14645961 -0.094363496
-0.052100033 -0.032713234 -0.13110082 0.06012031 -0.08552793 0.05120604 -0.058291204 0.045224324
0.014951872 -0.097202905 -0.044099487 0.04720095 -0.015567839 -0.15415333 -0.06586189 0.026212139
-0.034800265 -0.12338126 -0.14661153 0.032013148 0.04938364 -0.07342417 0.072626665 -0.10317874
0.94331616 0.17445606 -0.7318048 0.015833832 -0.3200307 0.3995298 0.40558705 -0.11152271
0.49709737 0.6146836 -0.7632782 -0.23216388 1.25701 -5.5315385 -5.1795516 0.34498203
1.0031719 -0.13289721 0.2835405 1.5977417 -0.08253829 -1.9382516 0.2798172 -0.30145156
-2.7531993 1.7445395 -0.28199708 0.5879631 0.120436996 0.17682527 0.25720856 0.47905785
-0.273985 1.1375638 0.43117964 0.06768145 -0.4533282 -0.12482841 0.5353868 -0.310481
1.1608678 -1.1129055 -0.52355593 0.03828807 0.0607606 1.6043459 -0.14628349 0.52680796
0.36644775 -0.45578903 0.32644022 0.20973587 -0.7353235 -0.4934141 -1.260518 0.254732
-0.2497919 -6.7437787 -0.5588024 0.9239949 0.0721149 -1.14229 0.29609808 -0.26165053
0.036306825 0.08185932 -0.09171407 -0.17189565 -0.044375215 0.026487214 -0.090826795 -0.0042400197
0.019421015 -0.04945769 0.066769674 0.060882553 -0.06248645 0.07413168 -0.12719208 0.026382627
-0.035043515 0.026288917 0.005075619 -0.09590397 -0.0491404 -0.0796982 0.079616174 0.089458935
-0.030924944 0.029700028 0.030895555 -0.11195812 -0.14027806 0.012261322 -0.1072036 0.027829498
-0.13843344 -0.099723645 -0.04315173 -0.033309236 0.058828097 0.021061853 -0.021660725 0.08242217
-0.07892483 -0.13037452 -0.1337937 0.05184408 -0.075409055 0.0022575238 -0.1455257 -0.06507443
-0.058113556 -0.013848976 -0.08442702 -0.08078309 -0.05270231 -0.124758266 0.032948177 0.07406489
-0.10898304 -0.048859455 0.100557804 0.065812916 -0.024796188 0.075208835 -0.13875926 -0.038954675

fc2.bias f4 [128]
00000000: 0472 fe40 c1db 98bc 5dc4 9840 d2c0 dabd
00000010: 4ac0 6840 b8b7 bf40 319a a240 cb1d 2a40
00000020: be54 7140 11fc 843f 2a08 e940 e5a0 3cbd
00000030: fef5 9440 1ad1 3cbd 6647 9040 7522 5440
00000040: 4fbd fbbd 05f3 1941 de8f 1b3e 73d3 0fbc
00000050: b665 d53f 2b22 9fbc 530c 533d cce8 b03d
00000060: 5643 a1bc aa1e 57bd 40ab 06bb d030 04bd
00000070: 8e1d d53d c254 0141 c458 0440 992a 2f41
00000080: 73b7 7d40 13e5 d9bf 33b4 a0bc 6edd 9440
00000090: 7ee2 9d40 a82c 76bd 573c 483c 9b42 db3f
000000a0: 7210 5140 50c2 e93c ce97 b6bd be88 ff3f
000000b0: 677f 18be ed89 ee3f 920b 8e40 4954 c9bd
000000c0: 153e 1641 c327 2b40 5dba 0d40 ccbb c13f
000000d0: dcfb 69bd a6b8 933c fea7 0a40 a32b 2640
000000e0: 1ae9 2440 5260 05be ed25 8c40 f4e2 533f
000000f0: 0890 1c41 ccdb 753e 5b53 0c40 8eb1 6a41
00000100: 99db fa40 1a52 1ebd d71f b13f 82d6 6740
00000110: c83d 5a40 60a7 2dbc 25bf b340 f518 943d
00000120: 8223 1341 9c9a a93f e0c5 c9bb f669 0141
00000130: e99f 73be e3e9 2f40 9dbe fc3f 4cbf db40
00000140: e964 f63c 8ca5 9d40 b5d6 923f 918e cd3d
00000150: cb57 3140 59ac 0141 663e 31bd a223 8440
00000160: 0bc0 fb3f 0c16 183d 31ac 1741 a1db 07be
00000170: 00fc a8b9 4a09 6dbd 10bc c3bd 81cd 2e40
00000180: 86ef 753d 6d58 2c40 4397 06be 8f92 a0bd
00000190: 95a2 2c41 207b 30bd cb3c 1041 8aef 0241
000001a0: 8ce2 7440 7505 9ebf 64b1 233f e63a d440
000001b0: 0893 f840 55a3 c13f b9cb cd3f e8d8 be40
000001c0: 856f 6c40 00e3 cfbd 591c be40 4ce5 01be
000001d0: c52c b13f c7fa 323d 5ec2 9e40 e483 523d
000001e0: cb1c 0041 d67d 0540 2fb7 04be c829 2a40
000001f0: ca52 683d 47a0 0841 6f6a cc40 898a 2cbd
7.951418 -0.018659474 4.77397 -0.10681309 3.6367364 5.9911766 5.081322 2.6580684
3.7707973 1.0389425 7.2822466 -0.04605188 4.6550283 -0.046097852 4.5087156 3.314603
-0.12291967 9.621831 0.151916 -0.008778441 1.6671665 -0.019425472 0.051525425 0.086381525
-0.019685429 -0.052519478 -0.002054885 -0.032273114 0.10406028 8.083193 2.0679178 10.9479
3.9643219 -1.7023033 -0.019617176 4.65203 4.933898 -0.06010118 0.012221417 1.7129701
3.2666287 0.028535038 -0.08915673 1.9963605 -0.1489235 1.8635842 4.4389124 -0.09830529
9.390157 2.6743019 2.2144997 1.5135436 -0.057124957 0.018032383 2.1665034 2.5964134
2.5767274 -0.13025025 4.3796296 0.8276818 9.785164 0.24009627 2.1925876 14.668348
7.8393064 -0.038652517 1.3837842 3.6224675 3.4100208 -0.010598987 5.617083 0.07231323
9.196169 1.3250308 -0.0061576217 8.088369 -0.2379147 2.7486503 1.974567 6.8671017
0.030077415 4.9264584 1.1471773 0.10036958 2.7709835 8.104577 -0.0432724 4.1293497
1.9667982 0.0371304 9.479539 -0.13267376 -0.00032231212 -0.057870187 -0.095573545 2.731293
0.06004288 2.692897 -0.1314364 -0.07840454 10.789693 -0.04308617 9.014842 8.183481
3.8263273 -1.2345415 0.6394255 6.6321898 7.767948 1.512797 1.6077796 5.963978
3.6943066 -0.10150719 5.9409604 -0.12685126 1.3841788 0.04369619 4.9612265 0.051395312
8.00703 2.0858054 -0.12960504 2.6588001 0.05671958 8.53913 6.3879924 -0.042124305

fc4.weight f4 [26, 128]
00000000: 7df6 563f 1269 9d3c 457e 5640 318b 68be
00000010: 88c9 1d3e 3f04 e3be 25cb 143f 0208 5c3f
00000020: 99ee 113f 5bfc e4bd 3137 213f 2740 993d
00000030: 6843 e63f bba8 ea3c 8b97 0e40 ec5e a33f
00000040: 1aee 3abd e6bc 153f 3ca5 bf40 5375 953d
00000050: 7c08 3f40 4bf2 5c3d ae77 9dbc febe eabc
00000060: c6a4 b0bd 59ef 313b 1c94 b63c dfb3 0c3b
00000070: 2294 8a3d 2824 6f3f 5d9f 303f 6502 553d
00000080: ef2a a640 d1bb 57bf be9d 393d b9f1 fabe
00000090: 9c2c 0b3f 7839 cebc ddbb 26bd 5e27 9740
000000a0: d599 1dc0 b3cd a13d dd59 ac3d 43f3 a83f
000000b0: 067b 883b 1e68 d63f c0d4 393f f48c f43c
000000c0: 4b6c 503f 6787 1240 bf59 d5bd 3309 fabe
000000d0: 9a50 28bd 4868 1abc b510 4940 9983 ba3e
000000e0: d2c8 0540 7d80 bdbd f82b 433f 1e50 abc0
000000f0: 7872 44bc bdce 2840 b37e fd3e 5cb4 b8be
00000100: 435b ad3f de19 6fbd a002 38bc 828f 6a3f
00000110: 879a 2140 42b6 9abd a551 b93e 9f4c b9bf
00000120: 7315 263f 2bc5 6a3f d09b acbb cacb be3f
00000130: 31db 0cc0 e600 f93f a60a e13f df47 0d3f
00000140: e5f1 023e 6e32 bb3f ead3 19be 669c dfbd
00000150: 8bc9 343f a06d 99bd b32b cabd d106 b83f
00000160: 0a26 3940 dad3 003d b6d9 e2be 19f4 8a3d
00000170: a0b7 e13b dc17 d5bd de8a 8a3b 2a7f 843f
00000180: 5bb0 afbd 9ada 463f 2c53 923c b1de 203d
00000190: fb3e 27be 7869 78bc fe81 b53e d0ca 103f
000001a0: 0656 c13f 661f 963d 06ca 79be 47c1 0f3f
000001b0: 6935 223f 7cb0 c8c1 bd36 06bf aedb 723f
000001c0: 1385 c93f 0b21 553d f7ae 043f df3c 8bbd
000001d0: bcc6 80bd 9ad5 2dbd a0a4 38c0 276f 97bd
000001e0: a85d 943f 12aa a6be 605f 303c 78a0 0f40
000001f0: 4966 923d 3e20 8a3e 7b4f 933f 20ef e03b
00000200: c526 6a3f 38a2 75bc 8d40 8d40 01c3 09be
00000210: c7ea 823e 8b8a 50be a1c8 a33f 52bd 283f
00000220: ddf1 1e3f f580 663e 0cf3 403f f063 59bd
00000230: 0885 f73f b758 b1bb 7684 0e40 4a3e b83f
00000240: c2e9 2abd 46f2 323f 5945 e13f bcf7 69bd
00000250: 7a00 c13f c8dc 55bd e0f4 06bc 28b0 59bc
00000260: d946 9ebd bbda bf3d 4061 db3b 3079 8d3b
00000270: d5d0 bb3d bc7a 943f 6c97 3441 3184 633c
00000280: 9bef 4740 a2c1 86bf 50f4 c53b e8f8 61bf
00000290: c77a 063f 908e dc3c c9f6 e13c 9bb1 41c0
000002a0: 05d9 0cc0 3991 8dbd 6605 263d 2771 ac3f
000002b0: 0205 aebd c3de f23f 1b1d a43f bd13 963d
000002c0: b339 2e3f ac23 1340 3cc4 9241 ae79 3ec1
000002d0: 190a 343d dd74 11bd d326 6a40 bd56 22bd
000002e0: 7f4f 0240 b75e 86ba 360f 563f 516e a9c0
000002f0: d7bb 153e c2e0 7040 7617 5d3f 4251 afbe
00000300: 536e 6d3f 7228 8cbd 68c0 c13e d3b4 c93f
00000310: 7b70 1d40 2262 50bd 0f6c 793e 5e4e c53c
00000320: 95ab 7e3f 6876 df3f a2a8 513d 7ac7 9a3f
00000330: 6196 6c3e 3062 ba3f 59ba 1140 6f63 0b3f
00000340: 8817 783d 7cb7 4740 a5b7 4b3e 68ab 833d
00000350: f76a 2340 5004 f2be edaa 543f 3e28 953f
00000360: b6a4 5f40 a661 0f3d 6451 05bf 2266 2abd
00000370: 37f8 53bd 9607 13bd 863d 873d 7f67 10c1
00000380: 78c6 79bc 9e48 18bf b736 95bd 5221 3fbd
00000390: 9a41 aebe f48e 7bbd dca1 253f 7952 e83e
000003a0: 87d7 d53f ca38 2d3f 0942 333e 2631 063f
000003b0: caab 213f 201c b1c0 b573 91bf 31ce 9e3f
000003c0: 3c31 ac3f 659a 70bd 1a50 1b3f dc18 52bd
000003d0: 4df0 0b3e ccdf c73d e2dc 2e40 2a82 a8bd
000003e0: f842 593f 4b3d 1fc1 8ca2 a5bc 0b27 1640
000003f0: 10b6 3e3c 3f05 7a3e a617 893f 4313 a53d
0.8396986 0.01921514 3.3514569 -0.22709347 0.1540891 -0.44339177 0.58122474 0.8594972
0.57004696 -0.111809455 0.6297484 0.07482939 1.7989321 0.02864491 2.2279994 1.2763343
-0.045637228 0.5849136 5.98892 0.072977684 2.9848928 0.053942006 -0.019222107 -0.028655525
-0.08625178 0.002715072 0.02228742 0.0021469516 0.06766535 0.93414545 0.6899317 0.052004237
5.192741 -0.8427096 0.04531645 -0.49012545 0.54364944 -0.025173888 -0.040706504 4.7235556
-2.4625142 0.07900562 0.084155776 1.3199238 0.004165056 1.6750524 0.72590256 0.029852368
0.8141524 2.2895143 -0.10417508 -0.48835143 -0.041092493 -0.009424277 3.1416447 0.36428526
2.090382 -0.09253023 0.76238966 -5.35353 -0.011990182 2.6376183 0.49510726 -0.36075103
1.3543476 -0.05837428 -0.011231095 0.91625226 2.5250566 -0.07554294 0.36195102 -1.4476508
0.6487648 0.91707104 -0.0052675977 1.4905941 -2.2008784 1.9453399 1.7581375 0.5518779
0.12787588 1.4624765 -0.15022245 -0.109185025 0.7062003 -0.074916124 -0.09871616 1.437708
2.8929467 0.031452037 -0.44306725 0.06784839 0.006888345 -0.104049414 0.00422798 1.0351307
-0.08578559 0.7767731 0.017861925 0.039274875 -0.16332619 -0.015161864 0.3545074 0.5655947
1.5104377 0.073302075 -0.24393472 0.5615429 0.6336275 -25.086174 -0.52427274 0.94866455
1.5743736 0.052033465 0.51829475 -0.067987196 -0.062879056 -0.042440034 -2.885048 -0.073942475
1.1591082 -0.32551628 0.010764927 2.2441692 0.071484156 0.26977724 1.150863 0.0068644434
0.9146541 -0.014992289 4.4141297 -0.13453294 0.25569746 -0.2036535 1.2795602 0.6591388
0.62087804 0.2251013 0.7537086 -0.053073823 1.9337473 -0.005412187 2.2268348 1.4394009
-0.041726835 0.6990093 1.7599288 -0.057121024 1.507827 -0.052212507 -0.008237094 -0.013286628
-0.07728357 0.093678914 0.0066949427 0.004317425 0.09170691 1.1599956 11.286968 0.013886497
3.1239994 -1.0527842 0.006041087 -0.88270426 0.52531093 0.026923448 0.027583497 -3.0264652
-2.2007458 -0.06912465 0.040532492 1.3472031 -0.08497049 1.8974231 1.2821382 0.073279835
0.6805679 2.2990522 18.345818 -11.904707 0.043954942 -0.03551184 3.6586196 -0.0396335
2.036102 -0.0010251616 0.8361696 -5.2947164 0.14622436 3.7637181 0.86363924 -0.34241682
0.92746466 -0.06843652 0.37842107 1.5758308 2.4599903 -0.050874837 0.24357627 0.02408522
0.99480563 1.745801 0.05118621 1.2092125 0.2310424 1.4561214 2.2769988 0.544486
0.060569316 3.120574 0.19894274 0.064291775 2.5534036 -0.47268915 0.8307331 1.1652906
3.4944282 0.035005234 -0.5207732 -0.041601308 -0.051750388 -0.035895906 0.066035315 -9.025268
-0.015245073 -0.59485805 -0.07285827 -0.046662636 -0.34034425 -0.061415628 0.647001 0.45375422
1.6706399 0.6766478 0.17505659 0.52418745 0.63152754 -5.534683 -1.1363436 1.2406675
1.3452525 -0.058740992 0.606691 -0.05129324 0.13665886 0.09759483 2.7322316 -0.08227952
0.8486781 -9.952464 -0.02021911 2.346133 0.011640087 0.24416064 1.0710342 0.080603145

fc4.bias f4 [26]
00000000: a109 4040 d1e5 073e c317 1140 8d4b 883f
00000010: 5558 013f b419 e33f eebc 1c40 c7bb e93f
00000020: 85fd 063f fff0 a1bf e719 09c0 bf23 143f
00000030: 686f a8be 7eec 1240 e1e6 673f e667 d93e
00000040: db90 893f 9b72 fc3f 0753 c43f d7a3 7240
00000050: 7bc4 0d40 2aff a240 49e6 cd3f 6b42 4740
00000060: a4de 3f40 c2b8 8b40
3.0005877 0.13271262 2.2670753 1.0648056 0.5052541 1.7742219 2.4490314 1.826043
0.5273059 -1.2651671 -2.142206 0.57867044 -0.32897496 2.2956843 0.9058667 0.4246208
1.0747331 1.9722475 1.5337838 3.79125 2.2151172 5.093648 1.6085902 3.1134288
2.997964 4.3663034
