q32.pth (torch, 589731 bytes, 6 tensors)

rnn.weight_ih_l0 f4 [512, 126]
0.36462295 -1.5273745 -1.4380684 -0.78103733 -0.14924729 -1.2273904 -0.5163969 -1.3711832
0.10206663 0.4932123 0.17322953 -1.0793097 -0.23321696 -0.7548749 0.39397505 0.06404414
-0.046438273 -0.66176605 -0.16231401 0.4811776 -0.77288115 -0.3543435 0.7438785 0.30977958
-0.130017 -1.2871944 -0.41222888 -0.7346494 -0.4929762 -1.0152054 -2.4164147 -1.3138565
-1.6694275 -1.2232219 0.09080363 -1.9465168 -2.21044 -1.4935169 -0.64762753 -0.34090126
0.27072498 -0.34431526 0.36958376 -0.2445627 -0.016958753 0.28571525 -0.013088451 -0.75848985
0.24987048 0.14319275 -0.79858106 0.015096722 -0.8938832 0.025476554 1.5168986 -0.21796426
-1.2092452 -0.76635975 -0.084165804 -1.4512625 2.0834897 -1.4411668 -0.1127672 0.7978625
-0.6020349 -0.099173024 0.20380217 0.2612607 -0.12765588 -0.011309448 -0.04272635 0.21858257
0.64832604 -0.672894 -0.06128617 -0.021030447 0.11510674 0.002494644 0.04139682 -0.056623638
-0.48188525 -0.020794496 0.12667143 0.025618616 0.023519292 0.015268095 -0.041772734 -0.079204045
0.07752186 0.02042401 0.038139075 0.112062864 -0.00039373338 0.002553098 0.016459508 0.12587848
0.07602117 0.047218226 0.0023591728 -0.05578204 0.044118114 -0.023827776 0.05985891 0.076592006
0.00971543 0.038767464 -0.030097041 -0.08817474 -0.07446517 0.05316641 0.07191964 0.08418716
0.0767911 0.009750865 0.059732057 0.06744137 0.020350195 0.003513962 -0.02327267 -0.086530335
0.06980917 0.102800675 -0.051067755 0.08392682 -0.014619201 0.93405926 -1.0539174 -0.4228225
-0.88553905 -1.2922374 -0.42222464 0.030813437 -1.0866444 -1.1204146 0.3256232 0.36727357
-1.029208 -1.5729359 -1.3433024 0.5187878 0.86261636 -0.4797639 -0.38484874 0.6794491
0.05208841 0.29647088 -0.834579 -0.6983708 0.83477867 0.6423166 -0.9132461 -1.1184775
-1.0820621 -0.4735532 -0.2513893 -1.3193023 -0.64033145 -0.23411253 -1.3247619 -1.0880984
-0.85277843 -0.76559746 -1.1518931 -1.0636854 -1.6191429 -1.171761 -1.3898346 -0.9862224
-0.96540976 -0.72257775 -0.3160995 -0.9083716 -0.5455863 -1.5513345 -0.29859716 -0.17763579
-0.27160376 -0.37495515 -1.0735091 -0.92852306 -0.08994006 -0.99843353 -1.5231935 -0.80124265
-0.45446327 -2.502897 -1.3504905 -1.1140244 -0.7113951 1.600936 -0.657584 -0.10696968
-0.00946541 0.90413654 -0.32886073 -0.28900483 -0.28726017 -0.32180205 -0.6436059 -0.98511183
0.044942427 0.011656699 -0.50027615 -0.2762421 -0.20530927 0.022652093 -0.31315246 -0.24740757
-0.2571818 -0.15615562 0.33323133 -0.3337927 0.014027046 -0.090702415 -0.20687234 0.86606807
-0.6746632 -0.29818588 -0.026264181 0.06066995 -0.26662332 -0.10779725 -0.5648292 1.2572016
-0.3500188 0.24092536 -0.18503802 -0.13934173 0.2318179 -0.09259068 -0.06698869 -0.27706155
-0.6193585 -0.45041704 -0.47498995 -0.0778102 -0.6829075 0.06567013 0.202619 -0.50240195
-0.68620014 0.021415403 -0.027780207 -0.08907988 -0.045168288 -0.11645173 -0.05802388 0.121705115
0.08660758 -0.40848693 -0.31290776 0.6396477 -0.013652307 0.3096359 -0.7208323 -1.3398352
00000000: dcaf ba3e 0281 c3bf a012 b8bf 10f2 47bf
00000010: 48d4 18be 211b 9dbf 9632 04bf ee82 afbf
00000020: 4f08 d13d 5386 fc3e 1563 313e d226 8abf
00000030: 6dd0 6ebe 7b3f 41bf 19b7 c93e 9329 833d
00000040: 0f36 3ebd 8069 29bf a535 26be e95c f63e
00000050: 8adb 45bf 836c b5be d26e 3e3f 6e9b 9e3e
00000060: 2d23 05be c9c2 a4bf aa0f d3be fc11 3cbf
00000070: 6067 fcbe 40f2 81bf 8aa6 1ac0 732c a8bf
00000080: cdaf d5bf 8992 9cbf 41f7 b93d 7627 f9bf
00000090: d977 0dc0 902b bfbf ebca 25bf 9c8a aebe
000000a0: 779c 8a3e 174a b0be 153a bd3e a56e 7abe
000000b0: 15ed 8abc 4549 923e f170 56bc 642c 42bf
000000c0: 0cde 7f3e 1fa1 123e cf6f 4cbf 3e58 773c
000000d0: 88d5 64bf 35b4 d03c bc29 c23f 0632 5fbe
000000e0: 8cc8 9abf 2730 44bf 1f5f acbd f8c2 b9bf
000000f0: e557 0540 2778 b8bf 7df2 e6bd b840 4c3f
00000100: f61e 1abf 3a1b cbbd 84b1 503e f6c3 853e
00000110: 39b8 02be 434b 39bc d301 2fbd 1cd4 5f3e
00000120: b2f8 253f c842 2cbf 3507 7bbd 0b48 acbc
00000130: 15bd eb3d 2e7d 233b b68f 293d 30ee 67bd
00000140: aab9 f6be 3859 aabc 28b6 013e 22de d13c
00000150: 88ab c03c 0827 7a3c e319 2bbd bb35 a2bd
00000160: c8c3 9e3d 4150 a73c b837 1c3d 3781 e53d
00000170: 006e ceb9 e051 273b 17d6 863c 4ae6 003e
00000180: fdb0 9b3d e667 413d 5a9c 1a3b b57b 64bd
00000190: 32b5 343d 7832 c3bc 9e2e 753d 45dc 9c3d
000001a0: 782d 1f3c a2ca 1e3d 128e f6bc f594 b4bd
000001b0: 3281 98bd 06c5 593d 9b4a 933d 516a ac3d
000001c0: a744 9d3d 18c2 1f3c 9aa9 743d b31e 8a3d
000001d0: 74b5 a63c 804a 663b 54a6 bebc d136 b1bd
000001e0: 1cf8 8e3d 2989 d23d 6c2c 51bd d3e1 ab3d
000001f0: 6085 6fbc 821e 6f3f c4e6 86bf 317c d8be
00000200: b0b2 62bf 0968 a5bf d42d d8be 766c fc3c
00000210: 2a17 8bbf bf69 8fbf 16b8 a63e 480b bc3e
00000220: 16bd 83bf f755 c9bf 55f1 abbf 47cf 043f
00000230: 6dd4 5c3f 9da3 f5be e50a c5be 60f0 2d3f
00000240: a85a 553d 08cb 973e f8a6 55bf 6ec8 32bf
00000250: 0eb4 553f dc6e 243f 7fca 69bf 452a 8fbf
00000260: 0381 8abf 9175 f2be 19b6 80be e6de a8bf
00000270: c3ec 23bf 32bb 6fbe cc91 a9bf cf46 8bbf
00000280: b04f 5abf 32fe 43bf 3c71 93bf d826 88bf
00000290: 1340 cfbf 44fc 95bf 1ae6 b1bf 1279 7cbf
000002a0: 1825 77bf dbfa 38bf cbd7 a1be 0b8b 68bf
000002b0: 8bab 0bbf 2192 c6bf bae1 98be 28e6 35be
000002c0: a60f 8bbe 1ffa bfbe bf68 89bf b0b3 6dbf
000002d0: 7f32 b8bd 5799 7fbf 01f8 c2bf 3d1e 4dbf
000002e0: 69af e8be 772f 20c0 dfdc acbf 5a98 8ebf
000002f0: fd1d 36bf 79eb cc3f 6d57 28bf eb12 dbbd
00000300: cf14 1bbc 7e75 673f 6f60 a8be 71f8 93be
00000310: c413 93be 3dc3 a4be 5bc3 24bf 4a30 7cbf
00000320: 8d15 383d bdfb 3e3c 1912 00bf 9b6f 8dbe
00000330: 983c 52be e290 b93c 8555 a0be 6958 7dbe
00000340: 55ad 83be 42e7 1fbe 4c9d aa3e e0e6 aabe
00000350: b2d1 653c 30c2 b9bd 58d6 53be a3b6 5d3f
00000360: bab6 2cbf d2ab 98be fb27 d7bc 0e81 783d
00000370: da82 88be cec4 dcbd a598 10bf fbeb a03f
00000380: aa35 b3be 23b5 763e 9b7a 3dbe 99af 0ebe
00000390: ac61 6d3e 2fa0 bdbd 5e31 89bd 03db 8dbe
000003a0: 478e 1ebf 109d e6be e231 f3be f45a 9fbd
000003b0: 07d3 2ebf 107e 863d 5b7b 4f3e 6a9d 00bf
000003c0: d0aa 2fbf 5b6f af3c 5193 e3bc 836f b6bd
000003d0: 6202 39bd 3f7e eebd 73aa 6dbd 8840 f93d
000003e0: 515f b13d 3325 d1be 7235 a0be f4bf 233f
000003f0: edad 5fbc 9988 9e3e 7788 38bf b87f abbf

rnn.weight_hh_l0 f4 [512, 128]
-0.05012907 0.07765303 -0.05590297 0.036246292 -0.024930261 -0.048736412 0.044680573 -0.07704507
0.02723892 0.02475769 -0.020625025 0.073907785 0.0870863 0.031283833 0.030077383 -0.0014664754
-0.02847306 0.059314035 0.081504785 0.017941706 0.05986423 0.05960176 0.054171972 -0.047516473
-0.049990673 -0.034941707 0.023437388 -0.052240755 -0.08485011 -0.021942362 -0.08049729 -0.08614803
-0.025386393 -0.06229259 -0.07561886 -0.06774783 0.043485098 0.013248958 -0.08597432 0.015770651
0.03498297 -0.07743281 0.06586566 0.04221504 -0.033905473 -0.0151223615 0.081586055 -0.07152529
0.043253176 0.0030437186 -0.0016204938 0.025354713 -0.051715266 0.068732046 0.07962511 0.065956704
-0.055047408 0.0100055635 -0.048246626 0.043995373 -0.028693248 -0.0024666786 -0.030566063 -0.012752727
0.054316767 -0.0014095306 -0.034981303 0.058481403 0.0040869936 0.08390684 0.028645769 0.061389662
-0.036461744 -0.055483617 0.04240825 0.08364824 -0.013394065 -0.009494871 0.050532885 -0.044100355
-0.026457388 -0.03447553 0.07049263 0.06885145 0.012746826 0.052784644 -0.04652952 -0.065092005
-0.015636124 0.06715358 -0.020788826 0.027759872 -0.07355028 -0.009170428 0.033258192 -0.06421102
0.01822766 0.014656968 -0.022236243 0.0006710589 -0.07506656 0.047244363 0.019646257 -0.032866344
0.038000755 0.078242056 0.079664804 -0.009058334 0.03407283 -0.053825382 0.016300589 0.04883585
-0.06216508 0.07799431 -0.05071956 0.078643315 0.06334812 -0.019563273 -0.068957284 0.016199239
0.03864231 -0.0095106065 0.0036736056 0.059609555 -0.057793666 0.0017595813 0.067920305 0.03252273
-0.039254077 0.056590877 0.01792159 0.011890307 -0.032385513 0.04234045 0.0062483773 -0.027619831
0.06791686 0.032677673 0.010427132 -0.05865464 0.07725453 0.062443994 -0.028696723 0.07153355
-0.040047556 -0.008040659 0.01059857 0.01550547 -0.05038722 -0.08069942 0.053472616 0.06916993
0.048199423 0.046698637 0.07808415 0.060916416 0.036607653 0.07813313 0.076485254 0.026192762
-0.065055594 0.044328846 -0.083770275 0.077045254 0.02229254 -0.006004058 -0.044510726 0.08508817
0.08149869 0.07548065 -0.01012259 -0.0052385777 0.050937705 0.014223859 -0.029741008 -0.043078326
-0.028946035 0.062962316 0.05001778 -0.028459817 0.07967497 0.01856812 -0.025022924 -0.05386696
0.023710825 -0.07849234 0.061248206 -0.07284112 0.008572236 0.08445256 -0.004423663 -0.028813776
-0.05151961 0.022794701 0.03602878 0.014350504 0.03358402 0.047973327 -0.0053901672 0.0077495426
0.034771964 0.07358494 0.04619459 0.031232081 0.046975784 0.088181235 -0.0006162077 -0.080797404
0.050417773 0.028679498 0.06067785 0.052688263 0.05389663 0.039204963 0.0042762384 -0.050823662
0.0839247 0.0022755787 -0.033746656 -0.0018198192 -0.022722542 0.06603033 0.007564001 0.053653173
-0.030557021 0.019089036 0.036202036 -0.05319928 -0.008309968 0.057052903 -0.064077325 -0.063376665
-0.052644797 0.032107607 0.040039383 -0.029396225 -0.044434685 0.01581809 0.054202802 0.053609006
0.044654407 0.04499995 -0.0829146 0.07073643 -0.06704994 -0.01799757 0.07170989 0.04568825
-0.088094436 0.052055188 0.0155340135 -0.050582625 0.051874094 -0.07677354 -0.010039851 -0.044528976
00000000: 2454 4dbd 8d08 9f3d 83fa 64bd fe76 143d
00000010: 8c3a ccbc d59f 47bd fa02 373d cec9 9dbd
00000020: 2824 df3c a4d0 ca3c d0f5 a8bc f75c 973d
00000030: 4d5a b23d 7a23 003d d864 f63c c036 c0ba
00000040: 5640 e9bc 46f3 723d fbeb a63d 7cfa 923c
00000050: 3234 753d fa20 743d 6ee3 5d3d a2a0 42bd
00000060: 05c3 4cbd 091f 0fbd c4ff bf3c 67fa 55bd
00000070: e5c5 adbd 78c0 b3bc c3db a4bd 616e b0bd
00000080: 20f7 cfbc 8426 7fbd 10de 9abd 60bf 8abd
00000090: 6e1d 323d 2812 593c 4e13 b0bd 7431 813c
000000a0: 4e4a 0f3d 1895 9ebd 93e4 863d aee9 2c3d
000000b0: 77e0 0abd c8c3 77bc 9716 a73d da7b 92bd
000000c0: 3e2a 313d 2079 473b c066 d4ba b0b4 cf3c
000000d0: 63d3 53bd 63c3 8c3d 7d12 a33d 4f14 873d
000000e0: 6479 61bd 60ee 233c 419e 45bd 7e34 343d
000000f0: 1a0e ebbc 00a8 21bb ae65 fabc d0f0 50bc
00000100: 427b 5e3d 00c0 b8ba 8e48 0fbd 328a 6f3d
00000110: 30ec 853b 59d7 ab3d 88aa ea3c ba73 7b3d
00000120: e958 15bd ca42 63bd 46b4 2d3d c54f ab3d
00000130: c872 5bbc 6090 1bbc 92fb 4e3d 93a2 34bd
00000140: 2abd d8bc 3736 0dbd 715e 903d fd01 8d3d
00000150: 10d8 503c b634 583d bd95 3ebd f54e 85bd
00000160: 5417 80bc d187 893d 544d aabc ac68 e33c
00000170: 87a1 96bd 903f 16bc be39 083d 1181 83bd
00000180: 2c52 953c c823 703c c828 b6bc 00ea 2f3a
00000190: 7fbc 99bd 4e83 413d 30f1 a03c dc9e 06bd
000001a0: aea6 1b3d 5f3d a03d 4d27 a33d 6869 14bc
000001b0: f48f 0b3d 0178 5cbd d088 853c 1a08 483d
000001c0: d0a0 7ebd 7bbb 9f3d 50bf 4fbd bf0f a13d
000001d0: a9bc 813d 2843 a0bc 7a39 8dbd 44b4 843c
000001e0: 6647 1e3d 60d2 1bbc e0c0 703b 2629 743d
000001f0: 0db9 6cbd c0a1 e63a cd19 8b3d 8e36 053d
00000200: e2c8 20bd d6cb 673d 4cd0 923c 90cf 423c
00000210: aca6 04bd 2e6d 2d3d 30bf cc3b fc42 e2bc
00000220: ff17 8b3d 06d9 053d 90d6 2a3c d93f 70bd
00000230: 9f37 9e3d 46c5 7f3d 6415 ebbc 2f80 923d
00000240: e808 24bd f8bc 03bc a0a5 2d3c a80a 7e3c
00000250: d462 4ebd bd45 a5bd 1a06 5b3d f7a8 8d3d
00000260: c26c 453d 1247 3f3d 95ea 9f3d 7e83 793d
00000270: e8f1 153d 4304 a03d 4da4 9c3d 3492 d63c
00000280: de3b 85bd 2a92 353d c08f abbd e7c9 9d3d
00000290: d89e b63c b0bd c4bb e150 36bd b542 ae3d
000002a0: c9e8 a63d 9995 9a3d 38d9 25bc 60a8 abbb
000002b0: 0ea4 503d 300b 693c 6aa3 f3bc e672 30bd
000002c0: 3c20 edbc 63f2 803d 72df 4c3d 9024 e9bc
000002d0: a12c a33d 2c1c 983c e0fc ccbc 9aa3 5cbd
000002e0: 343d c23c 98c0 a0bd 66df 7a3d ba2d 95bd
000002f0: 9072 0c3c 77f5 ac3d 60f4 90bb de0a ecbc
00000300: 3a06 53bd f4bb ba3c ea92 133d 601e 6b3c
00000310: 668f 093d ae7f 443d 00a0 b0bb e0ef fd3b
00000320: 0c6d 0e3d b3b3 963d 8a36 3d3d 6cda ff3c
00000330: ae69 403d 5d98 b43d 0089 21ba 1c79 a5bd
00000340: de82 4e3d 44f1 ea3c 5689 783d a6cf 573d
00000350: b6c2 5c3d 6295 203d b01f 8c3b 792c 50bd
00000360: b7e0 ab3d e021 153b ef39 0abd 0087 eeba
00000370: a024 babc e93a 873d 70db f73b 6ec3 5b3d
00000380: b852 fabc 9c60 9c3c 9648 143d 7de7 59bd
00000390: 8826 08bc 4eb0 693d f93a 83bd a0cb 81bd
000003a0: 12a2 57bd 4483 033d 5600 243d 5ad0 f0bc
000003b0: 2501 36bd f094 813c c203 5e3d 1e95 5b3d
000003c0: 8ae7 363d de51 383d 21cf a9bd 43de 903d
000003d0: 7b51 89bd a46f 93bc a3dc 923d 9a23 3b3d
000003e0: db6a b4bd d237 553d 6082 7e3c ba2f 4fbd
000003f0: ee79 543d 723b 9dbd 307e 24bc 0464 36bd

rnn.bias_ih_l0 f4 [512]
4.750114 4.8677974 6.10049 5.686768 6.2406473 8.862017 8.708312 5.411998
3.3262324 3.5492053 5.5554743 8.289204 8.381289 2.4040294 8.446431 5.9861636
5.4157534 7.005282 7.2402973 3.3231006 4.628362 2.1401405 6.3114095 3.4850624
5.000865 4.960046 7.1606145 5.1004186 5.0579777 9.017926 8.724957 5.033445
8.6283245 5.3257437 3.5041943 4.267733 3.7048087 5.8426857 4.6590233 4.8729496
6.962302 4.6159234 8.642921 5.522426 4.3804235 3.5541925 4.241183 5.966136
5.089989 6.0289464 8.590697 6.0309405 5.554508 5.274639 6.1033883 5.9948144
5.6360044 5.0037775 8.360453 8.413004 2.598687 8.757213 6.6109023 8.765196
7.019775 8.381779 5.9323463 4.4877176 5.3044386 4.5149655 4.882896 5.605873
5.725781 6.4285574 6.6593204 5.5312123 4.9092565 7.463426 7.935346 4.9057117
3.7902944 6.3673477 7.8518643 1.7657979 6.1355324 4.311133 5.490081 3.829946
6.835412 5.8066654 3.0471485 6.727513 8.770884 4.916295 6.727873 5.2866616
4.1933446 3.240358 4.7187624 5.764101 3.545301 6.335025 8.111171 5.325516
3.5292933 8.821641 5.7049685 6.6317368 5.259958 6.224945 2.8880103 2.546364
5.7595916 8.759328 4.859146 3.2362013 9.416111 3.4777038 5.0627046 4.489186
5.3300533 5.606688 4.7081385 2.884731 4.103514 5.2491765 4.8436785 5.551229
0.077232696 0.024086304 0.03208702 -0.07084707 -0.04867062 -0.054636665 0.029622078 0.08038116
-0.07463501 0.055065922 0.08666929 0.06429302 0.010507904 -0.04465602 0.03614025 0.055960365
-0.07108568 -0.055917803 0.00059664994 -0.051512487 -0.03545082 -0.075980335 -0.004359007 0.072917394
-0.06908764 0.025494263 0.03945618 -0.07675542 0.043158762 0.08152603 -0.062083445 0.06734031
-0.01859191 -0.044743355 -0.061426427 0.020851701 -0.069960564 0.019692317 0.03229274 0.032722495
0.04318679 -0.046162903 -0.022351623 0.05239328 -0.014236234 0.060299583 0.077477805 -0.019197889
-0.05542498 -0.03476765 0.07447893 0.018122807 -0.021149427 0.04454171 -0.0035638958 0.07179894
-0.018173195 -0.05602337 -0.025736481 -0.04243471 -0.027073596 0.04049311 0.08781672 -0.0749111
0.00089910626 -0.08024736 0.08304214 -0.007296659 0.080410026 -0.01192411 0.08814324 -0.046682026
-0.019165635 -0.042785708 -0.058828887 0.035530098 0.0104028955 0.056309618 -0.03610222 -0.08614358
-0.016278744 -0.021125004 -0.023386277 0.025964268 0.040121816 0.016281001 -0.067339286 -0.015312657
0.0030530244 -0.037539177 -0.008564711 0.08360564 0.065972306 0.07793235 -0.025686763 -0.013845302
-0.02688165 -0.066628434 0.07518221 0.044957288 -0.055201024 0.06560578 -0.030305881 0.07073829
0.009767182 0.052424826 0.07134134 0.06956298 -0.069170415 -0.07033055 -0.057831608 -0.02813945
-0.049987964 -0.0041447654 -0.046637204 -0.0614793 0.028088063 -0.009750925 -0.05126001 0.06413963
0.002435632 -0.0038462505 0.08268457 -0.03097099 -0.004046321 0.026727125 0.05523605 -0.08089775
00000000: ef00 9840 ffc4 9b40 3737 c340 01fa b540
00000010: 62b3 c740 d2ca 0d41 3f55 0b41 162f ad40
00000020: fee0 5440 2e26 6340 72c6 b140 94a0 0441
00000030: c219 0641 9edb 1940 9524 0741 a78e bf40
00000040: da4d ad40 452b e040 84b0 e740 aead 5440
00000050: 8b1b 9440 10f8 0840 11f7 c940 430b 5f40
00000060: 1607 a040 b2b8 9e40 c123 e540 a136 a340
00000070: f4da a140 6d49 1041 6d99 0b41 fb11 a140
00000080: 9e0d 0a41 7e6c aa40 b844 6040 4591 8840
00000090: 961b 6d40 48f7 ba40 b816 9540 34ef 9b40
000000a0: 2ecb de40 a5b5 9340 6849 0a41 b7b7 b040
000000b0: 6e2c 8c40 e477 6340 c5b7 8740 96ea be40
000000c0: 31e1 a240 21ed c040 7f73 0941 77fd c040
000000d0: 88be b140 d8c9 a840 f54e c340 85d5 bf40
000000e0: 265a b440 f21e a040 6ac4 0541 aa9b 0641
000000f0: e350 2640 8b1d 0c41 838c d340 3e3e 0c41
00000100: ffa1 e040 c41b 0641 c8d5 bd40 629b 8f40
00000110: f6bd a940 997a 9040 af40 9c40 5063 b340
00000120: 9939 b740 beb6 cd40 2719 d540 b1ff b040
00000130: a118 9d40 63d4 ee40 5bee fd40 97fb 9c40
00000140: 2f94 7240 50c1 cb40 7942 fb40 aa05 e23f
00000150: 4856 c440 cdf4 8940 beae af40 d61d 7540
00000160: b2bb da40 34d0 b940 7b04 4340 c947 d740
00000170: 8a55 0c41 4a52 9d40 bc4a d740 552c a940
00000180: e12f 8640 0762 4f40 1a00 9740 8473 b840
00000190: 36e6 6240 86b8 ca40 5bc7 0141 a16a aa40
000001a0: f1df 6140 7125 0d41 1a8f b640 3037 d440
000001b0: 9351 a840 c032 c740 29d5 3840 a1f7 2240
000001c0: 934e b840 3526 0c41 207e 9b40 ec1d 4f40
000001d0: 64a8 1641 b392 5e40 ad01 a240 69a7 8f40
000001e0: cc8f aa40 fd69 b340 12a9 9640 6f9f 3840
000001f0: fd4f 8340 41f9 a740 6aff 9a40 aba3 b140
00000200: 2d2c 9e3d a450 c53c ae6d 033d 4518 91bd
00000210: d85a 47bd b2ca 5fbd 00aa f23c e19e a43d
00000220: 3dda 98bd ce8c 613d ab7f b13d 0fac 833d
00000230: 5829 2c3c 3be9 36bd cc07 143d b236 653d
00000240: 5e95 91bd 110a 65bd 8068 1c3a c2fe 52bd
00000250: e134 11bd 949b 9bbd 00d6 8ebb b755 953d
00000260: d27d 8dbd 58d9 d03c ce9c 213d f231 9dbd
00000270: 3ec7 303d 1ff7 a63d 364b 7ebd b7e9 893d
00000280: 104e 98bc cf44 37bd 479a 7bbd 30d1 aa3c
00000290: 7c47 8fbd c851 a13c 6445 043d 0608 063d
000002a0: a2e4 303d 5015 3dbd c01a b7bc 569a 563d
000002b0: 183f 69bc b2fc 763d afac 9e3d e444 9dbc
000002c0: 4e05 63bd 8668 0ebd 6988 983d 4876 943c
000002d0: 9041 adbc 5e71 363d 4090 69bb 530b 933d
000002e0: f4df 94bc c378 65bd 50d5 d2bc 05d0 2dbd
000002f0: 72c9 ddbc 1adc 253d 41d9 b33d fe6a 99bd
00000300: 00b2 6b3a ba58 a4bd ff11 aa3d d018 efbb
00000310: 03ae a43d 585d 43bc 7184 b43d a735 3fbd
00000320: 4001 9dbc 1140 2fbd 8ff6 70bd 0288 113d
00000330: e870 2a3c eaa4 663d ecdf 13bd 0c6c b0bd
00000340: 005b 85bc 580e adbc 9494 bfbc 04b3 d43c
00000350: c656 243d bc5f 853c 2ee9 89bd f0e1 7abc
00000360: 4015 483b aec2 19bd 0053 0cbc 6f39 ab3d
00000370: 7d1c 873d ff9a 9f3d 0c6d d2bc 68d7 62bc
00000380: e836 dcbc 7d74 88bd 21f9 993d 2225 383d
00000390: 781a 62bd 535c 863d 0a44 f8bc 3ddf 903d
000003a0: 8806 203c 6abb 563d 691b 923d 0977 8e3d
000003b0: 38a9 8dbd 7709 90bd d6e0 6cbd b484 e6bc
000003c0: 2ec0 4cbd d0d0 87bb a706 3fbd b8d1 7bbd
000003d0: f018 e63c 58c2 1fbc 04f6 51bd a35b 833d
000003e0: 209f 1f3b 6011 7cbb 8756 a93d e0b6 fdbc
000003f0: 0097 84bb d8f2 da3c 323f 623d b8ad a5bd

rnn.bias_hh_l0 f4 [512]
4.6554136 4.8468423 6.045196 5.730191 6.185495 8.859587 8.717725 5.412317
3.398077 3.5976808 5.424116 8.347897 8.318538 2.3651178 8.376422 6.085653
5.4820294 6.9232936 7.2716556 3.2211626 4.724748 2.2670748 6.2904463 3.4516907
4.974308 4.9261866 7.0201936 5.0311494 5.0693583 9.052495 8.607184 4.9605856
8.628033 5.4248776 3.4882421 4.2151256 3.6469383 5.866603 4.6342535 4.7634473
7.1222386 4.649494 8.634557 5.570692 4.2854567 3.5659094 4.2143626 5.969965
5.0024385 6.0281725 8.450118 5.8560658 5.572353 5.224274 6.120121 5.9303837
5.697489 4.9960175 8.451449 8.449934 2.6678388 8.763553 6.5668406 8.7946005
7.146112 8.453829 5.8273363 4.4862857 5.2684703 4.468202 4.940203 5.6131563
5.819092 6.568345 6.7494335 5.563854 4.7461143 7.456197 8.040693 4.8892517
3.710033 6.2644076 7.8696823 1.7792825 6.0861034 4.3228173 5.5475855 3.8623788
6.9351697 5.711234 3.0692291 6.751802 8.90268 4.9181185 6.697071 5.294513
4.114632 3.124997 4.6552567 5.7639885 3.4640079 6.2983117 8.114784 5.2122903
3.5446646 8.7411 5.7195106 6.6153526 5.23253 6.2511454 3.0330951 2.6755426
5.8236856 8.7182455 4.9326234 3.1753154 9.385096 3.538132 5.000559 4.4816813
5.3853383 5.473834 4.739407 2.8468573 4.094576 5.1085076 4.938098 5.537878
-0.011946566 0.08304282 -0.04246489 0.0683349 -0.019709542 0.028824173 -0.06571962 -0.021983862
0.070948385 0.0042367503 0.021098964 0.0661227 0.08705268 0.0260318 -0.056167237 0.0170836
0.024593346 -0.084408715 -0.06840718 -0.00062681735 0.0017452091 0.023625761 0.009260662 0.04647445
0.06714832 0.026577078 0.06082151 -0.02768537 -0.016901746 -0.06983067 0.04860107 0.049996175
-0.008379586 -0.067278884 0.03530108 -0.055300523 0.05757522 -0.07484761 0.076814435 0.07244598
-0.0858008 0.020277284 -0.08527071 -0.064917505 0.081048764 0.026445933 -0.08188678 -0.08831318
-0.0016445816 -0.01573389 -0.06878826 0.03173767 -0.079952136 -0.005772218 -0.004838392 -0.003417179
0.04277549 0.08643972 0.0775759 -0.010604486 0.048236348 -0.0014467984 -0.08398498 0.012203358
-0.015120052 -0.03253622 0.050614737 0.059675835 0.08763858 0.021782868 0.022821568 -0.07078223
0.030460373 0.02192393 0.056477763 -0.028509602 0.017455295 0.019454606 -0.021324575 -0.035787195
-0.08355297 0.025858827 0.054389082 0.08389186 0.04485742 -0.008595891 -0.05312761 -0.046497088
0.05335129 0.04335489 -0.041013792 0.009201899 0.02062887 0.014319263 0.03679592 0.026939683
-0.019977659 0.016856275 0.06319801 0.026799105 -0.015274495 0.026808798 -0.08635675 -0.0641286
-0.06495288 -0.087794065 0.041273765 0.0108084455 -0.07732626 0.014126308 0.009562738 0.06058169
0.043015637 -0.043022584 0.034644127 0.035247512 0.07331782 0.057800464 -0.039864626 -0.048127
0.074349634 0.026387416 -0.020085588 -0.05294663 0.018104665 0.051193155 -0.011523128 0.012884922
00000000: 26f9 9440 5519 9b40 3f72 c140 ba5d b740
00000010: 93ef c540 dec0 0d41 cd7b 0b41 b331 ad40
00000020: 187a 5940 6740 6640 5c92 ad40 fc90 0541
00000030: bb18 0541 175e 1740 d305 0641 abbd c240
00000040: c96c af40 9f8b dd40 67b1 e840 8727 4e40
00000050: 2331 9740 c117 1140 564b c940 80e8 5c40
00000060: 882d 9f40 52a3 9d40 6da5 e040 2dff a040
00000070: 2f38 a240 05d7 1041 07b7 0941 1ebd 9e40
00000080: 6c0c 0a41 9998 ad40 5c3f 5f40 4fe2 8640
00000090: 7067 6940 36bb bb40 ce4b 9440 296e 9840
000000a0: 61e9 e340 a8c8 9440 2527 0a41 1c43 b240
000000b0: 7622 8940 dc37 6440 0fdc 8640 f409 bf40
000000c0: fa13 a040 cae6 c040 af33 0741 e464 bb40
000000d0: b750 b240 412d a740 08d8 c340 b4c5 bd40
000000e0: d451 b640 60df 9f40 2339 0741 ee32 0741
000000f0: dfbd 2a40 8337 0c41 8f23 d240 afb6 0c41
00000100: f3ac e440 e242 0741 8a79 ba40 a78f 8f40
00000110: 4f97 a840 83fb 8e40 2516 9e40 fa9e b340
00000120: 0036 ba40 e22f d240 5cfb d740 180b b240
00000130: 2be0 9740 2a99 ee40 aea6 0041 c074 9c40
00000140: 2e71 6d40 0776 c840 70d4 fb40 87bf e33f
00000150: 5cc1 c240 8554 8a40 d285 b140 3731 7740
00000160: e9ec dd40 6ec2 b640 406e 4440 c30e d840
00000170: 6171 0e41 3a61 9d40 684e d640 a76c a940
00000180: 11ab 8340 f3ff 4740 ddf7 9440 9872 b840
00000190: 4eb2 5d40 c58b c940 28d6 0141 15cb a640
000001a0: c9db 6240 8cdb 0b41 3b06 b740 f8b0 d340
000001b0: e370 a740 6209 c840 3b1e 4240 173c 2b40
000001c0: a25b ba40 ef7d 0b41 0dd8 9d40 5e38 4b40
000001d0: 5a29 1641 c170 6240 9404 a040 ef69 8f40
000001e0: b154 ac40 a629 af40 39a9 9740 e932 3640
000001f0: c406 8340 e578 a340 e604 9e40 4c36 b140
00000200: 88bb 43bc 5b12 aa3d aaef 2dbd 2bf3 8b3d
00000210: e875 a1bc ac20 ec3c 0298 86bd 8017 b4bc
00000220: 634d 913d 70d4 8a3b bcd7 ac3c 576b 873d
00000230: ad48 b23d a440 d53c 9e0f 66bd e8f2 8b3c
00000240: fc77 c93c 7ade acbd 1019 8cbd 0051 24ba
00000250: 80bf e43a d08a c13c 08ba 173c fe5b 3e3d
00000260: 0f85 893d 2cb8 d93c fa1f 793d 6ecc e2bc
00000270: 8875 8abc 6203 8fbd ea11 473d cac8 4c3d
00000280: 884a 09bc 83c9 89bd de97 103d cd82 62bd
00000290: fed3 6b3d b449 99bd e350 9d3d 8f5e 943d
000002a0: 54b8 afbd 8c1c a63c 69a2 aebd 78f3 84bd
000002b0: e5fc a53d 24a5 d83c 42b4 a7bd 8add b4bd
000002c0: 008f d7ba 5ce4 80bc dce0 8cbd 5cff 013d
000002d0: f2bd a3bd e024 bdbb 608b 9ebb c0f2 5fbb
000002e0: 5a35 2f3d 4f07 b13d 1de0 9e3d 70be 2dbc
000002f0: 7a93 453d 80a2 bdba 5100 acbd 98f0 473c
00000300: 18ba 77bc b344 05bd 6651 4f3d a66e 743d
00000310: db7b b33d fc71 b23c 4cf4 ba3c 46f6 90bd
00000320: 0888 f93c d099 b33c 3a55 673d f88c e9bc
00000330: 68fe 8e3c 445f 9f3c e0b0 aebc 9895 12bd
00000340: d21d abbd e4d5 d33c 16c7 5e3d 7fcf ab3d
00000350: 6abc 373d c8d5 0cbc 569c 59bd bb73 3ebd
00000360: e286 5a3d e694 313d 14fe 27bd 90c3 163c
00000370: e0fd a83c 589b 6a3c 52b7 163d 9cb0 dc3c
00000380: 30a8 a3bc 2c16 8a3c f56d 813d cc89 db3c
00000390: e041 7abc 209e db3c cfdb b0bd db55 83bd
000003a0: 0406 85bd 60cd b3bd ae0e 293d e815 313c
000003b0: 3b5d 9ebd 0872 673c 08ad 1c3c 8224 783d
000003c0: 2a31 303d 7338 30bd 00e7 0d3d b25f 103d
000003d0: a727 963d 2ec0 6c3d 1749 23bd d120 45bd
000003e0: 9f44 983d 6c2a d83c 888a a4bc 91de 58bd
000003f0: 3c50 943c eaaf 513d 80cb 3cbc 481b 533c

fc.weight f4 [124, 128]
9.586536 9.002353 8.492854 6.4274006 9.323102 -0.07431441 4.8610635 9.248388
9.514139 9.835705 9.23802 2.787063 -0.027227215 9.759283 9.7200775 9.325126
9.626509 4.5220733 4.9591374 9.619386 7.6438103 9.7358465 9.926355 8.779079
8.434063 9.023478 7.835517 9.219596 5.641831 6.9961514 0.071743526 6.964086
-0.032799795 9.7263155 9.847837 8.746233 8.820272 8.453061 8.847967 8.110282
6.6199512 9.197659 3.6877463 9.551297 7.2654905 8.410193 9.607676 8.564848
9.740228 7.6428394 0.029417053 9.507638 5.6755185 8.725684 9.441058 8.89534
9.008354 7.896816 9.61988 4.710219 9.403449 0.006174974 7.9052024 -0.057642285
6.6418095 7.181916 8.888198 10.018875 8.776131 7.591053 4.3597245 9.515345
9.525296 5.069648 9.053257 8.412821 8.634032 6.338855 8.944319 8.707552
9.556112 9.183978 8.281789 9.664955 7.0969095 9.253706 7.909273 8.848137
9.314066 8.391955 9.3730755 5.2277193 0.085288204 7.6499634 4.7074795 4.9587183
9.330729 8.8118515 0.026920885 8.83121 8.999252 5.3618813 4.0522146 8.490043
8.988364 -0.019580066 7.0191116 7.7905073 9.933415 5.873075 9.775496 9.621215
9.404609 0.018502235 9.4412155 8.842176 5.938223 9.811933 8.825092 7.126708
5.0416684 9.6569605 6.7161274 9.606278 7.8516197 8.996281 6.638226 9.575125
0.03372121 6.44494 5.855428 -1.2754629 -0.76492107 -4.6454563 -1.908675 -0.3859061
-0.36517876 0.17519826 6.192637 -3.865702 -5.2142467 8.138645 7.141531 -0.08278615
0.12553714 -2.8974996 -3.6733682 7.762808 -0.17721982 0.6519866 0.43814906 -0.7384843
-0.24701765 -0.28822115 -1.8037463 5.1424017 -2.331633 -1.5214801 -6.105377 -2.0260427
-6.106043 0.72559756 -0.27669647 -1.6304961 -0.8548542 5.735337 6.227624 -0.9063934
-2.0491214 -0.56025743 -0.8864083 -0.15864174 -0.95433784 -0.52196556 7.07969 -0.215895
1.4338205 4.419933 -6.0341973 -1.7229631 -1.4320794 0.38873014 -0.53066146 0.75981617
4.8293786 5.054206 7.3043923 -2.2210166 -1.0141155 -6.1058607 5.9505353 -6.0099173
-0.76599735 -1.5005543 -1.5686352 4.0430956 -1.2824731 -1.2882054 -2.4784963 -0.2117658
7.536732 -2.7850554 6.502156 -1.7546281 7.1851163 -2.0024605 -0.3954003 -1.387269
-0.06347176 -1.2321787 0.2420334 -0.42372912 1.8514835 6.992237 -0.33446324 -0.31906503
-0.60162526 5.432889 -0.53239673 -3.3089828 -6.0121655 -0.39648157 -2.2494926 -2.9586437
5.6959276 7.3414493 -5.005133 -0.88782465 0.2975678 -1.8521827 1.8913199 5.982459
-0.90655303 -5.9704385 5.343727 -2.3335352 0.5567184 -2.7445774 0.73261446 -0.013249294
6.2254844 -6.1275535 -0.97313213 4.790749 4.207294 7.7678504 -1.2325563 -2.61961
-2.612809 -0.13394447 -1.7938976 6.767041 -0.25450772 -0.6419703 -2.1409023 7.3346133
00000000: 7462 1941 a309 1041 bbe2 0741 44ad cd40
00000010: 6d2b 1541 2732 98bd d58d 9b40 66f9 1341
00000020: ea39 1841 0c5f 1d41 eece 1341 3d5f 3240
00000030: 9c0b dfbc 0626 1c41 7085 1b41 b733 1541
00000040: 2e06 1a41 d3b4 9040 41b1 9e40 01e9 1941
00000050: 189a f440 07c6 1b41 5ad2 1e41 1c77 0c41
00000060: ecf1 0641 2a60 1041 8ebc fa40 7783 1341
00000070: e189 b440 79e0 df40 45ee 923d cbd9 de40
00000080: 1459 06bd fd9e 1b41 be90 1d41 92f0 0b41
00000090: d61f 0d41 bd3f 0741 4691 0d41 b7c3 0141
000000a0: a4d6 d340 9c29 1341 0904 6c40 1dd2 1841
000000b0: e67e e840 2790 0641 0ab9 1941 9e09 0941
000000c0: f9d7 1b41 2492 f440 08fc f03c 491f 1841
000000d0: d99d b540 679c 0b41 930e 1741 5053 0e41
000000e0: 3822 1041 b7b2 fc40 07eb 1941 1dba 9640
000000f0: 8774 1641 7057 ca3b 6bf7 fc40 511a 6cbd
00000100: b489 d440 42d2 e540 0f36 0e41 504d 2041
00000110: 086b 0c41 e8e9 f240 dd82 8b40 da3e 1841
00000120: 9d67 1841 8e3a a240 24da 1041 ea9a 0641
00000130: ff24 0a41 e6d7 ca40 ee1b 0f41 2252 0b41
00000140: d6e5 1841 93f1 1241 3582 0441 a8a3 1a41
00000150: e219 e340 2e0f 1441 c418 fd40 f891 0d41
00000160: 6a06 1541 7345 0641 1ef8 1541 7a49 a740
00000170: 95ab ae3d 80cc f440 aca3 9640 d2ad 9e40
00000180: aa4a 1541 58fd 0c41 3089 dc3c a34c 0d41
00000190: f0fc 0f41 8894 ab40 beab 8140 37d7 0741
000001a0: 57d0 0f41 6066 a0bc 909c e040 d64b f940
000001b0: 45ef 1e41 3bf0 bb40 6e68 1c41 7ff0 1941
000001c0: 4779 1641 0092 973c 380f 1741 8e79 0d41
000001d0: ec05 be40 adfd 1c41 9433 0d41 fe0d e440
000001e0: 5955 a140 e982 1a41 84ea d640 51b3 1941
000001f0: 7840 fb40 c4f0 0f41 596c d440 b633 1941
00000200: 401f 0a3d f33c ce40 ab5f bb40 5e42 a3bf
00000210: ded1 43bf 94a7 94c0 764f f4bf 7c95 c5be
00000220: b6f8 babe 2c67 333e 152a c640 a967 77c0
00000230: 1cdb a6c0 e437 0241 6c87 e440 c98b a9bd
00000240: cf8c 003e a270 39c0 7718 6bc0 ec68 f840
00000250: 1d79 35be 98e8 263f 1355 e03e 4f0d 3dbf
00000260: 32f2 7cbe b991 93be 29e1 e6bf 8e8e a440
00000270: 7a39 15c0 dcbf c2bf 405f c3c0 afaa 01c0
00000280: b464 c3c0 c3c0 393f 29ab 8dbe 19b4 d0bf
00000290: bad7 5abf e187 b740 b248 c740 6609 68bf
000002a0: ce24 03c0 086d 0fbf a8eb 62bf fb72 22be
000002b0: 7c4f 74bf 899f 05bf d28c e240 9413 5dbe
000002c0: 6e87 b73f 1770 8d40 2518 c1c0 0e8a dcbf
000002d0: 614e b7bf a307 c73e 6ed9 07bf 5083 423f
000002e0: 458a 9a40 0ebc a140 95bd e940 2325 0ec0
000002f0: 89ce 81bf 3663 c3c0 c96a be40 3e51 c0c0
00000300: 6718 44bf 2a12 c0bf 0ac9 c8bf 0a61 8140
00000310: 1428 a4bf eae3 a4bf af9f 1ec0 22d9 58be
00000320: e92c f140 593e 32c0 a911 d040 a797 e0bf
00000330: 79ec e540 5028 00c0 e871 cabe 0892 b1bf
00000340: 7bfd 81bd 08b8 9dbf 9bd7 773e 06f3 d8be
00000350: 69fd ec3f 68c0 df40 c43e abbe 7e5c a3be
00000360: 1d04 1abf 3ada ad40 274b 08bf 60c6 53c0
00000370: a963 c0c0 a2ff cabe b0f7 0fc0 6b5a 3dc0
00000380: 0a45 b640 27ed ea40 0d2a a0c0 7a48 63bf
00000390: cf5a 983e 5314 edbf c516 f23f 4e70 bf40
000003a0: dc13 68bf d50d bfc0 d0ff aa40 a458 15c0
000003b0: 1985 0e3f 28a7 2fc0 9f8c 3b3f 9113 59bc
000003c0: 2b37 c740 eb14 c4c0 301f 79bf d14d 9940
000003d0: 27a2 8640 3b92 f840 68c4 9dbf b1a7 27c0
000003e0: 4338 27c0 bd28 09be 709e e5bf 9a8b d840
000003f0: d64e 82be 2a58 24bf 8b04 09c0 27b5 ea40

fc.bias f4 [124]
9.625025 -0.07202327 -0.032780953 7.1817317 13.331028 0.35366523 1.4772686 10.203019
8.780358 12.464474 1.8493711 -1.6476464 -0.34236538 1.1930289 8.706371 17.442171
8.000065 11.305152 1.9636861 15.883919 3.119692 6.365878 19.020187 7.710909
9.752732 7.137183 4.6626754 7.6909385 10.406551 12.652841 7.2894907 6.959671
1.2843606 12.989615 7.975007 7.7626796 2.2086182 -1.4288105 8.444839 7.5639334
11.438229 5.9136386 10.829091 4.978688 13.616463 9.676396 3.5582573 2.2229385
19.376457 14.233294 5.6149473 -2.4848406 2.3392012 8.224291 7.9494057 2.0943112
0.5619746 -4.2723155 9.468443 8.722188 0.36598843 10.160576 6.9805393 8.873691
16.488167 17.386347 3.6956692 1.2975574 15.859218 8.086169 0.9937054 -0.49336997
10.225974 2.4694464 14.792679 5.4817824 12.130073 7.2768607 15.320275 14.51199
10.719561 8.194322 7.6098804 10.386225 7.5624056 9.217988 -0.48414975 11.270226
6.0250115 11.789377 13.586766 6.479102 7.5433927 16.446339 -0.78034014 9.384687
1.9992652 2.1771195 27.677452 3.2019353 13.349429 6.823395 11.089874 14.83552
8.798278 9.261937 6.85722 20.16744 6.271416 11.838808 12.045788 0.15089898
13.50232 9.336262 0.20985092 13.23373 12.220675 7.44091 7.923303 11.287606
3.6721804 6.147528 6.9681 16.692604
00000000: 1a00 1a41 f080 93bd 5245 06bd bfd0 e540
00000010: e44b 5541 9c13 b53e 2317 bd3f 913f 2341
00000020: 597c 0c41 7c6e 4741 31b8 ec3f 14e6 d2bf
00000030: 844a afbe 2cb5 983f 4c4d 0b41 9189 8b41
00000040: 4400 0041 e7e1 3441 115a fb3f 8824 7e41
00000050: 09a9 4740 46b5 cb40 5829 9841 c4bf f640
00000060: 310b 1c41 ce63 e440 a334 9540 2b1c f640
00000070: 3c81 2641 0972 4a41 8243 e940 a0b5 de40
00000080: ee65 a43f 77d5 4f41 4233 ff40 df67 f840
00000090: 005a 0d40 43e3 b6bf 0f1e 0741 be0b f240
000000a0: fc02 3741 873c bd40 f543 2d41 6951 9f40
000000b0: 08dd 5941 85d2 1a41 7dba 6340 a044 0e40
000000c0: fc02 9b41 92bb 6341 a6ad b340 a107 1fc0
000000d0: 79b5 1540 b296 0341 8861 fe40 3209 0640
000000e0: 91dd 0f3f cfb6 88c0 be7e 1741 158e 0b41
000000f0: d662 bb3e b891 2241 9460 df40 a3fa 0d41
00000100: c4e7 8341 3d17 8b41 d885 6c40 5c16 a63f
00000110: 5bbf 7d41 f360 0141 7a63 7e3f fd9a fcbe
00000120: 979d 2341 690b 1e40 d0ae 6c41 c36a af40
00000130: c714 4241 0bdc e840 d91f 7541 1c31 6841
00000140: 5283 2b41 f11b 0341 2484 f340 fa2d 2641
00000150: 3aff f140 e17c 1341 7ae2 f7be d852 3441
00000160: e5cc c040 4aa1 3c41 6563 5941 ce54 cf40
00000170: 7963 f140 1a92 8341 5fc4 47bf ae27 1641
00000180: ece7 ff3f ed55 0b40 6c6b dd41 82ec 4c40
00000190: 4397 5541 4059 da40 2070 3141 4a5e 6d41
000001a0: bfc5 0c41 e530 1441 596e db40 eb56 a141
000001b0: 71af c840 c26b 3d41 8cbb 4041 4385 1a3e
000001c0: 8109 5841 5461 1541 29e3 563e 5cbd 5341
000001d0: e387 4341 ef1b ee40 b38b fd40 099a 3441
000001e0: 0105 6b40 8db8 c440 adfa de40 748a 8541
